my_model.npz (npz, 536700 bytes, 113 tensors)

embedding_matrix f8 [131, 32]
000000 1e bb d1 a7 ce fd fb bf 49 55 77 7e e1 f0 d1 bf
       -1.7494646602096462 -0.2803271994610737
000010 bd a7 45 aa 32 30 00 c0 2b 31 5d 0d e8 67 d0 3f
       -2.023534136057576 0.2563419466503258
000020 4d 00 cf 34 de 9f e7 bf 59 2e 8b 7c bf e4 05 c0
       -0.7382651359003006 -2.7366933565115628
000030 f1 96 49 8f 3b 01 03 c0 6c 1d 0a fb df a4 e3 3f
       -2.375601882394101 0.6138763335338075
000040 b9 80 3d 3d b0 a1 fa bf f9 ca bb fa 43 05 dd 3f
       -1.6644747154423796 0.4534463833398799
000050 65 1c bd d3 57 c9 e5 3f fd b9 f1 c5 13 6b e2 bf
       0.6808280120393532 -0.5755709520433921
000060 3b 5c d1 95 06 ea ef 3f 52 c8 12 4a 11 d4 f0 3f
       0.9973175932053729 1.0517743009081824
000070 7d 6d ba 65 2e 99 eb bf 92 77 a7 27 6f 20 c8 bf
       -0.8624488818053774 -0.18848981319655117
000080 82 6b 25 33 cd 2f e8 bf e5 fb c9 63 4b 8d d6 bf
       -0.7558351515721002 -0.3523739313604309
000090 50 69 ab 74 46 b3 8f bf db 8c 71 51 42 9d f8 3f
       -0.015478659091446773 1.5383933240307701
0000a0 ab f1 30 9c a7 78 c9 bf 15 7f 6f 7e c7 a0 cc 3f
       -0.19899459005854445 0.2236565940247536
0000b0 31 e7 ce cc 2d b1 e9 3f 78 88 5a 6e 1b 38 f7 3f
       0.8028782844696477 1.4511980353059055
0000c0 56 ab 16 73 9d 9d fa bf 11 f2 f4 d5 c1 68 fd bf
       -1.6634802337309416 -1.8380754811943272
0000d0 ec 50 c5 4c d0 9b f6 bf 18 fa 38 d9 55 d9 f8 3f
       -1.4130404471262024 1.5530603871590127
0000e0 44 9b 06 18 51 d9 f8 bf b4 fe 8c 30 6c dc f0 bf
       -1.5530558527477334 -1.0538141151918525
0000f0 2b 45 ee a8 ab ef f4 3f 5b 9e 95 ae cf 3a f2 bf
       1.3085133169991632 -1.1393582172112449
000100 1e 99 74 f4 ad 15 d6 3f 18 80 20 89 2f 1c d3 3f
       0.34507321236232424 0.29859531775764614
000110 57 8a 61 d2 e5 83 ea 3f 76 89 1f a9 0b a4 db bf
       0.8286007985119096 -0.431887545737616
000120 a8 55 44 21 77 6d fa bf be 7d 67 97 ed bc ff bf
       -1.6517249392976314 -1.9836250223378182
000130 21 a0 58 21 a6 e9 f8 3f 6a 39 f9 09 03 ee e2 3f
       1.557043199785774 0.5915541834636262
000140 0e bc 88 0f 2f 6a c3 bf ba 10 ed f1 b7 11 d8 3f
       -0.15167797335149696 0.37608145356740474
000150 f2 3d 9b c8 a2 f5 c9 bf 6b a3 f1 50 50 6e e7 3f
       -0.2028087119601732 0.7322160321174186
000160 2e aa 79 d8 70 5a f0 3f 36 c0 ef 88 e9 7b ff 3f
       1.0220802742065973 1.967752013119037
000170 eb f0 50 8b 97 64 c9 3f 39 eb b1 74 5a c0 eb 3f
       0.19838232328937208 0.8672306327056055
000180 31 09 a0 d2 82 51 b2 bf 7c 1e a7 9e 09 f8 d7 bf
       -0.07155625955787027 -0.3745140122741544
000190 2a c5 5e f3 6a 76 f1 3f 45 5a da e7 37 2d f4 bf
       1.091410589852169 -1.26103964393191
0001a0 d0 34 77 e9 f3 9c e4 3f 4f a8 6c 1e 14 04 c8 3f
       0.6441592750431031 0.1876244686657764
0001b0 06 c7 c2 55 a1 9b d1 3f 65 a0 55 e4 1b bd e7 bf
       0.2751239144810004 -0.7418345889718806
0001c0 a3 94 35 38 aa f3 f4 3f 00 cd 4c 8a a4 d2 ed bf
       1.3094885059047463 -0.9319632245227751
0001d0 91 2a 11 40 2e 1b e5 bf d6 78 b8 1b 87 fe ef 3f
       -0.659567952280968 0.999820284024987
0001e0 e2 15 a5 de 94 88 e5 bf d7 54 2e 42 f9 4b f0 bf
       -0.6729225491077921 -1.0185482583231555
0001f0 b5 e4 c3 91 cb 4b f7 3f 89 44 ee 50 48 7b eb bf
       1.4560046857789477 -0.8587991314581284
000200 bb f3 94 22 df dd ee bf 14 c9 a5 cf 37 53 cc 3f
       -0.9645839381624833 0.22128961218874876
000210 bf e8 0d cf c1 95 dd bf 2b 81 8d c0 8e 12 ba bf
       -0.4622654459013908 -0.10184566689486434
000220 60 eb 95 5e f9 ee ed bf 91 24 4d 05 d4 fd e2 bf
       -0.935421643006844 -0.5934848884145528
000230 a0 99 f1 8a 40 be f5 3f 5e f8 0a 8e d8 12 de bf
       1.3589482715120553 -0.46990026351330083
000240 1b 73 da 27 ed 97 f7 bf 3f ed 30 2e 6f 33 ec 3f
       -1.4745914036531704 0.8812786008997263
000250 e8 f6 89 13 ba b0 cc 3f 6f d8 47 7f 77 fe dc 3f
       0.22414327577637683 0.45303142003775226
000260 dd 19 be ef ec 5c eb 3f cc 64 ce 52 5a 82 c5 3f
       0.8550934488746936 0.16804055255196315
000270 b5 89 51 02 62 7a f6 3f 62 ea 81 94 12 a2 f4 3f
       1.4048786249701213 1.2895685006211797
000280 b3 f1 38 24 b9 4a e6 3f aa d2 b7 55 6d 73 bb bf
       0.6966214854688161 -0.10723002760625869
000290 e6 9f 28 19 34 70 d1 bf 89 5d f9 4c 5c 96 d2 3f
       -0.2724733586969691 0.29042727963447895
0002a0 6c a5 7e bc ef fd f1 bf a9 d7 57 62 1f 7e d3 3f
       -1.1244962084841417 0.30457291225263333
0002b0 60 fa 75 8a 8d 47 f0 bf 3c 4f 9f 9e 81 24 00 40
       -1.0174689682604807 2.017825354801884
0002c0 d2 f0 b1 67 57 5a db 3f 83 16 1d c5 7e 7a d8 3f
       0.42738900305245153 0.3824765133798353
0002d0 10 41 5e a5 12 ec e1 bf 42 56 66 af b5 39 d0 3f
       -0.5600674848410865 0.2535223210228176
0002e0 55 ec 03 8d 4e d0 fb 3f 27 a0 21 19 98 42 e4 bf
       1.7383561619197014 -0.633129166683834
0002f0 6c 79 b0 d5 b7 f8 f9 bf f6 7b af 24 fe 69 fd 3f
       -1.623222193454775 1.8383771355654495
000300 5b a5 55 8b 5f b2 e5 bf 8f ad 61 ae aa 50 f8 3f
       -0.6780240746858611 1.5196940242557024
000310 af 7f af 5c b2 4e e0 3f c1 fb 93 0a cc 87 01 40
       0.5096065340294355 2.191307146683784
000320 b6 7f b9 67 a7 16 e4 3f 97 e2 bd 5b ad 50 e8 3f
       0.6277653718825522 0.7598482887106738
000330 62 43 32 7a 8e fd a8 bf 21 37 c5 32 c1 f9 ee 3f
       -0.04880948297171163 0.9679876319512212
000340 ce 87 a5 d0 be dd e0 3f ae 95 8f 3a d9 08 f0 bf
       0.5270685267571424 -1.0021602904829296
000350 28 a9 a9 72 2e 4e ed bf 85 bb da fa 14 44 de bf
       -0.9157936324602689 -0.4729053926229699
000360 d0 08 3b 04 69 8d 75 3f 5c fb 04 d3 d6 aa e2 bf
       0.005261812420657999 -0.5833543893312299
000370 e4 9f a9 74 15 41 e5 3f 85 fc 6b de ce b2 eb 3f
       0.6641948011938408 0.8655771583725175
000380 1d 23 7c b6 07 e2 ea 3f 0e 12 11 a6 09 43 8c bf
       0.8400915683897413 -0.01379973924680036
000390 52 e6 b2 e6 b6 e3 db bf 3b c8 9c 60 d5 cb d6 bf
       -0.4357735875051719 -0.35619100985343594
0003a0 ce 30 1f 40 6c d0 d1 bf 9b bf 15 4d 8d 63 ce 3f
       -0.27834612142465864 0.237413084639681
0003b0 ff 5e 20 4e 08 18 f3 bf 2a d2 40 79 50 f5 f5 bf
       -1.1933672954382357 -1.3723911987737076
0003c0 92 78 fd 7b 32 4c f3 3f af 30 43 20 d5 ad f2 bf
       1.2061028331150152 -1.1674395809414297
0003d0 0a 95 00 df 70 6f eb 3f 0b ed b0 9f 8a 7f ed 3f
       0.857353625823323 0.9218190306632165
0003e0 51 55 d5 1b 2d da e7 3f 46 b7 4c fe c6 69 fe bf
       0.745382837640742 -1.9008245404797477
0003f0 ee 93 13 a5 30 ca d7 bf fd 82 85 47 25 2e ec bf
       -0.3717156993937455 -0.8806330105690844
000400 52 fb ea 5d 38 92 90 3f b7 3b 52 63 67 96 f9 3f
       0.016182785732549228 1.5992196922049808
000410 f7 9a e1 07 18 06 e0 3f a1 a6 8c 1d 97 dd ea 3f
       0.5007438806468077 0.8395495965134679
000420 33 1d 76 5e 58 36 ab 3f b9 cc f9 a2 0a b6 f7 bf
       0.053148995905809925 -1.4819437376252564
000430 e8 c6 37 54 54 24 fa bf 7e df 41 6b 3b c8 a1 3f
       -1.633869484878625 0.03473077472966589
000440 fc 1f 9a 5f 04 9f f0 3f e7 9c 2c 3b 04 95 eb 3f
       1.038822530217657 0.8619404941317982
000450 99 4a 68 7c 3b 8d f2 bf 75 0c 70 5a 85 32 ff 3f
       -1.1594805583633045 1.9498342068407315
000460 86 e2 d5 9b bd 3a da 3f f4 d4 db 38 4e 17 e3 bf
       0.40983524530705784 -0.5965949163934554
000470 8b 72 b5 2c 58 f9 eb 3f dd f1 28 f1 78 fe f9 3f
       0.8741875527590123 1.6246270580587556
000480 53 e6 35 16 90 e8 ea 3f c4 46 e1 df 77 0e d9 3f
       0.8408890184211465 0.3915080725028981
000490 a6 39 d5 58 30 f4 de bf 5d df 1d 0c d3 7a f8 bf
       -0.48365410494889216 -1.5299864266689476
0004a0 62 cd 9b bb ea 56 bf bf e4 97 be 88 dd 07 fc bf
       -0.12241999702728415 -1.7519202558119042
0004b0 ba 1d f0 6b 9c b5 e7 3f b0 eb 19 fb 18 71 d9 bf
       0.7409193142092854 -0.39752792855841346
0004c0 e0 c9 df 14 4d 09 f5 3f 85 fe 21 77 98 2e f4 bf
       1.3147707763097216 -1.2613758710503202
0004d0 1c 1a 55 93 1c ba f4 bf b2 a8 5b 67 9c 9f d5 3f
       -1.2954374079869302 0.3378668794017684
0004e0 3b 15 85 49 72 5c ea 3f 5a b8 9a 0a 93 37 f7 3f
       0.8237849651274368 1.4510679640038888
0004f0 da 25 19 25 54 98 cf bf 9c 4e 41 04 cb 3a df 3f
       -0.24683620273053358 0.48796344199693364
000500 4f f2 55 bc cd 50 f1 bf ae 0e 87 ff 02 72 f7 3f
       -1.0822274548401258 1.465334890513002
000510 cc f3 c6 18 d6 c3 b0 bf a6 00 78 60 b8 4f 01 c0
       -0.06548822503005097 -2.163925889646708
000520 7e 87 ab 4e 30 3a c6 bf 46 f9 2b 6d 21 0b e9 3f
       -0.17365077821073877 0.7826087124119929
000530 95 1a cc 71 1d dc d9 bf af 80 db 57 96 e8 f3 bf
       -0.4040597544957703 -1.2442840034419012
000540 05 86 cd 64 04 e2 e8 3f 9c e7 be 3c 85 68 eb 3f
       0.7775899857335281 0.8565088449897647
000550 ad b2 06 00 4e 4e fb 3f c7 26 87 74 c8 2b fb 3f
       1.7066173554441477 1.6981892158386687
000560 67 36 ed b7 71 de d6 3f 39 28 d7 b4 41 59 e3 3f
       0.3573269172819437 0.6046455890693841
000570 03 a3 d9 09 41 d3 f2 3f ca 27 87 7d 5d 56 d7 bf
       1.1765756974002108 -0.36464631327237085
000580 d5 77 1c 16 ed e5 fc 3f 33 1a c1 32 01 9a d8 3f
       1.8061343063086401 0.38439969974971006
000590 a7 f9 53 fe 01 58 f5 bf 1f 4e d9 31 a7 f3 f0 bf
       -1.3339862761200523 -1.0594856211872707
0005a0 3b 4e 76 c8 1e ef d5 3f 56 d3 5a 06 af 62 dc 3f
       0.3427197415960312 0.4435231744821996
0005b0 12 0a 86 87 a7 06 ec bf 5b 57 5a cb 8e 2b d2 bf
       -0.8758123061127796 -0.28390855654412456
0005c0 16 64 e0 75 03 e5 e8 3f 7e 59 dd 5d 9c 61 f9 3f
       0.7779557516361162 1.5863307634914174
0005d0 07 26 b5 5f e5 ec ea bf c1 18 a6 08 11 ba c1 3f
       -0.8414179677285468 0.1384908001165908
0005e0 8a e6 27 75 56 fc e2 3f 0f c9 2b 48 a2 1f ea bf
       0.5933029449654026 -0.8163615617361603
0005f0 51 82 32 bc c9 bb e5 3f 2a f2 30 3e 22 4d ea bf
       0.6791733432510886 -0.8219157423660068
000600 67 67 5b a7 4d 40 e3 3f 37 f4 fa 8b 43 dd 9c bf
       0.6015995281879726 -0.028187804621428305
000610 0b 2b 86 3e 50 d0 eb bf 8f 96 a7 ac fa cd 09 40
       -0.8691788884328572 3.225575779785522
000620 63 1e 49 d1 b1 a1 a1 3f 2e a3 97 47 10 83 da bf
       0.03443675689464667 -0.41424948684157215
000630 9e 29 5f bf 76 90 ee 3f c7 e7 ff 91 8c 7c ef 3f
       0.9551347482422903 0.9839537478976518
000640 78 88 88 91 be 1a c8 bf 84 3c 32 18 f2 53 d8 3f
       -0.18831617456550354 0.3801236377993933
000650 62 ec d7 c9 50 43 f2 bf d7 65 66 95 cc 75 01 40
       -1.141434467745761 2.1825191184877712
000660 e2 ac 58 90 58 3e fb 3f 37 d9 d9 a0 6c d0 f3 bf
       1.7027211798220425 -1.2383848460427325
000670 1f 2c ac ad aa 7a e1 3f 8e a6 24 a2 66 d8 c6 bf
       0.546223963932224 -0.17847903172632978
000680 98 4c cb 7f 08 ab f1 3f d5 55 68 d6 a0 d4 a7 3f
       1.1042561523397918 0.046544099972532095
000690 ea 84 e3 9c 79 d9 ff bf ed fe c4 fd 61 6a ec bf
       -1.9905944946734118 -0.8879861790119016
0006a0 c2 c1 de 56 2a c0 e1 bf bc f6 43 67 fd 25 ce bf
       -0.5547076889688969 -0.23553435842761938
0006b0 c6 7f fd 1e 7b 43 e0 3f 7b 94 ec 62 de fa ff 3f
       0.5082374196317623 1.9987472404693836
0006c0 71 c2 ca ca 77 8e ec bf 45 a8 6b 37 18 57 bf 3f
       -0.8923911057264161 0.12242270806351126
0006d0 eb 13 d5 76 4f ce e6 3f 5e cf 9b be ed 56 d7 3f
       0.7126843758529707 0.3646807061588698
0006e0 ec aa c1 8b 04 69 d3 3f 3a b0 9f 44 a5 78 b4 bf
       0.30328477523896313 -0.07996590543160745
0006f0 be 00 8c b1 80 b8 f0 3f 00 ea e2 6c 47 49 e5 bf
       1.0450446067261931 -0.6651951910674256
000700 49 f2 c1 84 08 2c fb bf 45 35 16 37 17 e8 d4 bf
       -1.6982503114551426 -0.3266656911808535
000710 a4 58 c5 62 17 52 e5 bf 16 a2 ee 39 d0 eb f2 bf
       -0.6662709168547463 -1.1825716269469289
000720 2c b0 36 66 25 64 e1 bf 8b f7 b0 98 0a de e8 3f
       -0.5434748646125676 0.7771046621562488
000730 98 1b c4 d2 3e 03 f0 bf af e6 59 6f d7 66 ce 3f
       -1.0007923348473238 0.23751347481793547
000740 2f ec 71 29 46 22 e9 3f d7 ab 4a 60 a7 8c cf bf
       0.7854338464234213 -0.24647991372816477
000750 15 14 07 0b 8f ab ec bf 9c 3c 85 73 12 c7 e7 bf
       -0.8959422316917222 -0.7430507904299648
000760 66 79 53 59 2e 81 ca 3f c0 2e 20 a9 1d 83 dd bf
       0.20706729280113761 -0.46112767711813873
000770 a0 5e 92 72 31 26 e5 3f 9f 1d da fd 59 03 e3 3f
       0.6609122503022782 0.5941591222808035
000780 bd 47 cb 39 73 4c db bf 64 9f 60 98 06 a4 f2 3f
       -0.4265411438365126 1.165045352196068
000790 42 1f 1f 9f ac 0c f5 bf 43 9f e5 61 db ae e0 bf
       -1.3155943122564655 -0.5213448440599467
0007a0 2b b1 4c 97 12 26 f4 3f 53 7b 81 1b 54 aa d4 bf
       1.2592950735225468 -0.32289602933990585
0007b0 05 af 1f 27 ae 2b e1 bf 51 9e a4 02 1a e1 e5 3f
       -0.5365820659767172 0.6837282230016603
0007c0 d3 64 a2 15 de 6e c5 bf 08 32 b6 f5 b8 70 fc bf
       -0.16744590813031 -1.7775201414216344
0007d0 fb 9b 5e 8f 7d c1 fa bf 15 26 38 be 1a f9 d2 3f
       -1.67223888400781 0.2964541299448638
0007e0 ac bc 23 9a 8a 6d e0 bf b4 48 0c 61 49 76 fb 3f
       -0.5133717546977059 1.7163785735070123
0007f0 e8 d8 da 58 38 bc e7 bf 3b 94 67 15 f2 64 d6 bf
       -0.7417260871359561 -0.34991123285573494

unembedding_matrix (column-major) f8 [32, 131]
000000 1e bb d1 a7 ce fd fb bf 49 55 77 7e e1 f0 d1 bf
       -1.7494646602096462 -0.2803271994610737
000010 bd a7 45 aa 32 30 00 c0 2b 31 5d 0d e8 67 d0 3f
       -2.023534136057576 0.2563419466503258
000020 4d 00 cf 34 de 9f e7 bf 59 2e 8b 7c bf e4 05 c0
       -0.7382651359003006 -2.7366933565115628
000030 f1 96 49 8f 3b 01 03 c0 6c 1d 0a fb df a4 e3 3f
       -2.375601882394101 0.6138763335338075
000040 b9 80 3d 3d b0 a1 fa bf f9 ca bb fa 43 05 dd 3f
       -1.6644747154423796 0.4534463833398799
000050 65 1c bd d3 57 c9 e5 3f fd b9 f1 c5 13 6b e2 bf
       0.6808280120393532 -0.5755709520433921
000060 3b 5c d1 95 06 ea ef 3f 52 c8 12 4a 11 d4 f0 3f
       0.9973175932053729 1.0517743009081824
000070 7d 6d ba 65 2e 99 eb bf 92 77 a7 27 6f 20 c8 bf
       -0.8624488818053774 -0.18848981319655117
000080 82 6b 25 33 cd 2f e8 bf e5 fb c9 63 4b 8d d6 bf
       -0.7558351515721002 -0.3523739313604309
000090 50 69 ab 74 46 b3 8f bf db 8c 71 51 42 9d f8 3f
       -0.015478659091446773 1.5383933240307701
0000a0 ab f1 30 9c a7 78 c9 bf 15 7f 6f 7e c7 a0 cc 3f
       -0.19899459005854445 0.2236565940247536
0000b0 31 e7 ce cc 2d b1 e9 3f 78 88 5a 6e 1b 38 f7 3f
       0.8028782844696477 1.4511980353059055
0000c0 56 ab 16 73 9d 9d fa bf 11 f2 f4 d5 c1 68 fd bf
       -1.6634802337309416 -1.8380754811943272
0000d0 ec 50 c5 4c d0 9b f6 bf 18 fa 38 d9 55 d9 f8 3f
       -1.4130404471262024 1.5530603871590127
0000e0 44 9b 06 18 51 d9 f8 bf b4 fe 8c 30 6c dc f0 bf
       -1.5530558527477334 -1.0538141151918525
0000f0 2b 45 ee a8 ab ef f4 3f 5b 9e 95 ae cf 3a f2 bf
       1.3085133169991632 -1.1393582172112449
000100 1e 99 74 f4 ad 15 d6 3f 18 80 20 89 2f 1c d3 3f
       0.34507321236232424 0.29859531775764614
000110 57 8a 61 d2 e5 83 ea 3f 76 89 1f a9 0b a4 db bf
       0.8286007985119096 -0.431887545737616
000120 a8 55 44 21 77 6d fa bf be 7d 67 97 ed bc ff bf
       -1.6517249392976314 -1.9836250223378182
000130 21 a0 58 21 a6 e9 f8 3f 6a 39 f9 09 03 ee e2 3f
       1.557043199785774 0.5915541834636262
000140 0e bc 88 0f 2f 6a c3 bf ba 10 ed f1 b7 11 d8 3f
       -0.15167797335149696 0.37608145356740474
000150 f2 3d 9b c8 a2 f5 c9 bf 6b a3 f1 50 50 6e e7 3f
       -0.2028087119601732 0.7322160321174186
000160 2e aa 79 d8 70 5a f0 3f 36 c0 ef 88 e9 7b ff 3f
       1.0220802742065973 1.967752013119037
000170 eb f0 50 8b 97 64 c9 3f 39 eb b1 74 5a c0 eb 3f
       0.19838232328937208 0.8672306327056055
000180 31 09 a0 d2 82 51 b2 bf 7c 1e a7 9e 09 f8 d7 bf
       -0.07155625955787027 -0.3745140122741544
000190 2a c5 5e f3 6a 76 f1 3f 45 5a da e7 37 2d f4 bf
       1.091410589852169 -1.26103964393191
0001a0 d0 34 77 e9 f3 9c e4 3f 4f a8 6c 1e 14 04 c8 3f
       0.6441592750431031 0.1876244686657764
0001b0 06 c7 c2 55 a1 9b d1 3f 65 a0 55 e4 1b bd e7 bf
       0.2751239144810004 -0.7418345889718806
0001c0 a3 94 35 38 aa f3 f4 3f 00 cd 4c 8a a4 d2 ed bf
       1.3094885059047463 -0.9319632245227751
0001d0 91 2a 11 40 2e 1b e5 bf d6 78 b8 1b 87 fe ef 3f
       -0.659567952280968 0.999820284024987
0001e0 e2 15 a5 de 94 88 e5 bf d7 54 2e 42 f9 4b f0 bf
       -0.6729225491077921 -1.0185482583231555
0001f0 b5 e4 c3 91 cb 4b f7 3f 89 44 ee 50 48 7b eb bf
       1.4560046857789477 -0.8587991314581284
000200 bb f3 94 22 df dd ee bf 14 c9 a5 cf 37 53 cc 3f
       -0.9645839381624833 0.22128961218874876
000210 bf e8 0d cf c1 95 dd bf 2b 81 8d c0 8e 12 ba bf
       -0.4622654459013908 -0.10184566689486434
000220 60 eb 95 5e f9 ee ed bf 91 24 4d 05 d4 fd e2 bf
       -0.935421643006844 -0.5934848884145528
000230 a0 99 f1 8a 40 be f5 3f 5e f8 0a 8e d8 12 de bf
       1.3589482715120553 -0.46990026351330083
000240 1b 73 da 27 ed 97 f7 bf 3f ed 30 2e 6f 33 ec 3f
       -1.4745914036531704 0.8812786008997263
000250 e8 f6 89 13 ba b0 cc 3f 6f d8 47 7f 77 fe dc 3f
       0.22414327577637683 0.45303142003775226
000260 dd 19 be ef ec 5c eb 3f cc 64 ce 52 5a 82 c5 3f
       0.8550934488746936 0.16804055255196315
000270 b5 89 51 02 62 7a f6 3f 62 ea 81 94 12 a2 f4 3f
       1.4048786249701213 1.2895685006211797
000280 b3 f1 38 24 b9 4a e6 3f aa d2 b7 55 6d 73 bb bf
       0.6966214854688161 -0.10723002760625869
000290 e6 9f 28 19 34 70 d1 bf 89 5d f9 4c 5c 96 d2 3f
       -0.2724733586969691 0.29042727963447895
0002a0 6c a5 7e bc ef fd f1 bf a9 d7 57 62 1f 7e d3 3f
       -1.1244962084841417 0.30457291225263333
0002b0 60 fa 75 8a 8d 47 f0 bf 3c 4f 9f 9e 81 24 00 40
       -1.0174689682604807 2.017825354801884
0002c0 d2 f0 b1 67 57 5a db 3f 83 16 1d c5 7e 7a d8 3f
       0.42738900305245153 0.3824765133798353
0002d0 10 41 5e a5 12 ec e1 bf 42 56 66 af b5 39 d0 3f
       -0.5600674848410865 0.2535223210228176
0002e0 55 ec 03 8d 4e d0 fb 3f 27 a0 21 19 98 42 e4 bf
       1.7383561619197014 -0.633129166683834
0002f0 6c 79 b0 d5 b7 f8 f9 bf f6 7b af 24 fe 69 fd 3f
       -1.623222193454775 1.8383771355654495
000300 5b a5 55 8b 5f b2 e5 bf 8f ad 61 ae aa 50 f8 3f
       -0.6780240746858611 1.5196940242557024
000310 af 7f af 5c b2 4e e0 3f c1 fb 93 0a cc 87 01 40
       0.5096065340294355 2.191307146683784
000320 b6 7f b9 67 a7 16 e4 3f 97 e2 bd 5b ad 50 e8 3f
       0.6277653718825522 0.7598482887106738
000330 62 43 32 7a 8e fd a8 bf 21 37 c5 32 c1 f9 ee 3f
       -0.04880948297171163 0.9679876319512212
000340 ce 87 a5 d0 be dd e0 3f ae 95 8f 3a d9 08 f0 bf
       0.5270685267571424 -1.0021602904829296
000350 28 a9 a9 72 2e 4e ed bf 85 bb da fa 14 44 de bf
       -0.9157936324602689 -0.4729053926229699
000360 d0 08 3b 04 69 8d 75 3f 5c fb 04 d3 d6 aa e2 bf
       0.005261812420657999 -0.5833543893312299
000370 e4 9f a9 74 15 41 e5 3f 85 fc 6b de ce b2 eb 3f
       0.6641948011938408 0.8655771583725175
000380 1d 23 7c b6 07 e2 ea 3f 0e 12 11 a6 09 43 8c bf
       0.8400915683897413 -0.01379973924680036
000390 52 e6 b2 e6 b6 e3 db bf 3b c8 9c 60 d5 cb d6 bf
       -0.4357735875051719 -0.35619100985343594
0003a0 ce 30 1f 40 6c d0 d1 bf 9b bf 15 4d 8d 63 ce 3f
       -0.27834612142465864 0.237413084639681
0003b0 ff 5e 20 4e 08 18 f3 bf 2a d2 40 79 50 f5 f5 bf
       -1.1933672954382357 -1.3723911987737076
0003c0 92 78 fd 7b 32 4c f3 3f af 30 43 20 d5 ad f2 bf
       1.2061028331150152 -1.1674395809414297
0003d0 0a 95 00 df 70 6f eb 3f 0b ed b0 9f 8a 7f ed 3f
       0.857353625823323 0.9218190306632165
0003e0 51 55 d5 1b 2d da e7 3f 46 b7 4c fe c6 69 fe bf
       0.745382837640742 -1.9008245404797477
0003f0 ee 93 13 a5 30 ca d7 bf fd 82 85 47 25 2e ec bf
       -0.3717156993937455 -0.8806330105690844
000400 52 fb ea 5d 38 92 90 3f b7 3b 52 63 67 96 f9 3f
       0.016182785732549228 1.5992196922049808
000410 f7 9a e1 07 18 06 e0 3f a1 a6 8c 1d 97 dd ea 3f
       0.5007438806468077 0.8395495965134679
000420 33 1d 76 5e 58 36 ab 3f b9 cc f9 a2 0a b6 f7 bf
       0.053148995905809925 -1.4819437376252564
000430 e8 c6 37 54 54 24 fa bf 7e df 41 6b 3b c8 a1 3f
       -1.633869484878625 0.03473077472966589
000440 fc 1f 9a 5f 04 9f f0 3f e7 9c 2c 3b 04 95 eb 3f
       1.038822530217657 0.8619404941317982
000450 99 4a 68 7c 3b 8d f2 bf 75 0c 70 5a 85 32 ff 3f
       -1.1594805583633045 1.9498342068407315
000460 86 e2 d5 9b bd 3a da 3f f4 d4 db 38 4e 17 e3 bf
       0.40983524530705784 -0.5965949163934554
000470 8b 72 b5 2c 58 f9 eb 3f dd f1 28 f1 78 fe f9 3f
       0.8741875527590123 1.6246270580587556
000480 53 e6 35 16 90 e8 ea 3f c4 46 e1 df 77 0e d9 3f
       0.8408890184211465 0.3915080725028981
000490 a6 39 d5 58 30 f4 de bf 5d df 1d 0c d3 7a f8 bf
       -0.48365410494889216 -1.5299864266689476
0004a0 62 cd 9b bb ea 56 bf bf e4 97 be 88 dd 07 fc bf
       -0.12241999702728415 -1.7519202558119042
0004b0 ba 1d f0 6b 9c b5 e7 3f b0 eb 19 fb 18 71 d9 bf
       0.7409193142092854 -0.39752792855841346
0004c0 e0 c9 df 14 4d 09 f5 3f 85 fe 21 77 98 2e f4 bf
       1.3147707763097216 -1.2613758710503202
0004d0 1c 1a 55 93 1c ba f4 bf b2 a8 5b 67 9c 9f d5 3f
       -1.2954374079869302 0.3378668794017684
0004e0 3b 15 85 49 72 5c ea 3f 5a b8 9a 0a 93 37 f7 3f
       0.8237849651274368 1.4510679640038888
0004f0 da 25 19 25 54 98 cf bf 9c 4e 41 04 cb 3a df 3f
       -0.24683620273053358 0.48796344199693364
000500 4f f2 55 bc cd 50 f1 bf ae 0e 87 ff 02 72 f7 3f
       -1.0822274548401258 1.465334890513002
000510 cc f3 c6 18 d6 c3 b0 bf a6 00 78 60 b8 4f 01 c0
       -0.06548822503005097 -2.163925889646708
000520 7e 87 ab 4e 30 3a c6 bf 46 f9 2b 6d 21 0b e9 3f
       -0.17365077821073877 0.7826087124119929
000530 95 1a cc 71 1d dc d9 bf af 80 db 57 96 e8 f3 bf
       -0.4040597544957703 -1.2442840034419012
000540 05 86 cd 64 04 e2 e8 3f 9c e7 be 3c 85 68 eb 3f
       0.7775899857335281 0.8565088449897647
000550 ad b2 06 00 4e 4e fb 3f c7 26 87 74 c8 2b fb 3f
       1.7066173554441477 1.6981892158386687
000560 67 36 ed b7 71 de d6 3f 39 28 d7 b4 41 59 e3 3f
       0.3573269172819437 0.6046455890693841
000570 03 a3 d9 09 41 d3 f2 3f ca 27 87 7d 5d 56 d7 bf
       1.1765756974002108 -0.36464631327237085
000580 d5 77 1c 16 ed e5 fc 3f 33 1a c1 32 01 9a d8 3f
       1.8061343063086401 0.38439969974971006
000590 a7 f9 53 fe 01 58 f5 bf 1f 4e d9 31 a7 f3 f0 bf
       -1.3339862761200523 -1.0594856211872707
0005a0 3b 4e 76 c8 1e ef d5 3f 56 d3 5a 06 af 62 dc 3f
       0.3427197415960312 0.4435231744821996
0005b0 12 0a 86 87 a7 06 ec bf 5b 57 5a cb 8e 2b d2 bf
       -0.8758123061127796 -0.28390855654412456
0005c0 16 64 e0 75 03 e5 e8 3f 7e 59 dd 5d 9c 61 f9 3f
       0.7779557516361162 1.5863307634914174
0005d0 07 26 b5 5f e5 ec ea bf c1 18 a6 08 11 ba c1 3f
       -0.8414179677285468 0.1384908001165908
0005e0 8a e6 27 75 56 fc e2 3f 0f c9 2b 48 a2 1f ea bf
       0.5933029449654026 -0.8163615617361603
0005f0 51 82 32 bc c9 bb e5 3f 2a f2 30 3e 22 4d ea bf
       0.6791733432510886 -0.8219157423660068
000600 67 67 5b a7 4d 40 e3 3f 37 f4 fa 8b 43 dd 9c bf
       0.6015995281879726 -0.028187804621428305
000610 0b 2b 86 3e 50 d0 eb bf 8f 96 a7 ac fa cd 09 40
       -0.8691788884328572 3.225575779785522
000620 63 1e 49 d1 b1 a1 a1 3f 2e a3 97 47 10 83 da bf
       0.03443675689464667 -0.41424948684157215
000630 9e 29 5f bf 76 90 ee 3f c7 e7 ff 91 8c 7c ef 3f
       0.9551347482422903 0.9839537478976518
000640 78 88 88 91 be 1a c8 bf 84 3c 32 18 f2 53 d8 3f
       -0.18831617456550354 0.3801236377993933
000650 62 ec d7 c9 50 43 f2 bf d7 65 66 95 cc 75 01 40
       -1.141434467745761 2.1825191184877712
000660 e2 ac 58 90 58 3e fb 3f 37 d9 d9 a0 6c d0 f3 bf
       1.7027211798220425 -1.2383848460427325
000670 1f 2c ac ad aa 7a e1 3f 8e a6 24 a2 66 d8 c6 bf
       0.546223963932224 -0.17847903172632978
000680 98 4c cb 7f 08 ab f1 3f d5 55 68 d6 a0 d4 a7 3f
       1.1042561523397918 0.046544099972532095
000690 ea 84 e3 9c 79 d9 ff bf ed fe c4 fd 61 6a ec bf
       -1.9905944946734118 -0.8879861790119016
0006a0 c2 c1 de 56 2a c0 e1 bf bc f6 43 67 fd 25 ce bf
       -0.5547076889688969 -0.23553435842761938
0006b0 c6 7f fd 1e 7b 43 e0 3f 7b 94 ec 62 de fa ff 3f
       0.5082374196317623 1.9987472404693836
0006c0 71 c2 ca ca 77 8e ec bf 45 a8 6b 37 18 57 bf 3f
       -0.8923911057264161 0.12242270806351126
0006d0 eb 13 d5 76 4f ce e6 3f 5e cf 9b be ed 56 d7 3f
       0.7126843758529707 0.3646807061588698
0006e0 ec aa c1 8b 04 69 d3 3f 3a b0 9f 44 a5 78 b4 bf
       0.30328477523896313 -0.07996590543160745
0006f0 be 00 8c b1 80 b8 f0 3f 00 ea e2 6c 47 49 e5 bf
       1.0450446067261931 -0.6651951910674256
000700 49 f2 c1 84 08 2c fb bf 45 35 16 37 17 e8 d4 bf
       -1.6982503114551426 -0.3266656911808535
000710 a4 58 c5 62 17 52 e5 bf 16 a2 ee 39 d0 eb f2 bf
       -0.6662709168547463 -1.1825716269469289
000720 2c b0 36 66 25 64 e1 bf 8b f7 b0 98 0a de e8 3f
       -0.5434748646125676 0.7771046621562488
000730 98 1b c4 d2 3e 03 f0 bf af e6 59 6f d7 66 ce 3f
       -1.0007923348473238 0.23751347481793547
000740 2f ec 71 29 46 22 e9 3f d7 ab 4a 60 a7 8c cf bf
       0.7854338464234213 -0.24647991372816477
000750 15 14 07 0b 8f ab ec bf 9c 3c 85 73 12 c7 e7 bf
       -0.8959422316917222 -0.7430507904299648
000760 66 79 53 59 2e 81 ca 3f c0 2e 20 a9 1d 83 dd bf
       0.20706729280113761 -0.46112767711813873
000770 a0 5e 92 72 31 26 e5 3f 9f 1d da fd 59 03 e3 3f
       0.6609122503022782 0.5941591222808035
000780 bd 47 cb 39 73 4c db bf 64 9f 60 98 06 a4 f2 3f
       -0.4265411438365126 1.165045352196068
000790 42 1f 1f 9f ac 0c f5 bf 43 9f e5 61 db ae e0 bf
       -1.3155943122564655 -0.5213448440599467
0007a0 2b b1 4c 97 12 26 f4 3f 53 7b 81 1b 54 aa d4 bf
       1.2592950735225468 -0.32289602933990585
0007b0 05 af 1f 27 ae 2b e1 bf 51 9e a4 02 1a e1 e5 3f
       -0.5365820659767172 0.6837282230016603
0007c0 d3 64 a2 15 de 6e c5 bf 08 32 b6 f5 b8 70 fc bf
       -0.16744590813031 -1.7775201414216344
0007d0 fb 9b 5e 8f 7d c1 fa bf 15 26 38 be 1a f9 d2 3f
       -1.67223888400781 0.2964541299448638
0007e0 ac bc 23 9a 8a 6d e0 bf b4 48 0c 61 49 76 fb 3f
       -0.5133717546977059 1.7163785735070123
0007f0 e8 d8 da 58 38 bc e7 bf 3b 94 67 15 f2 64 d6 bf
       -0.7417260871359561 -0.34991123285573494

position_matrix f8 [1000, 32]
000000 2d b1 7c 7a e1 3c e3 bf 94 1c 6e 5f fb 2f d0 bf
       -0.6011817352605583 -0.25292858428333287
000010 59 f9 00 5f 28 5b d4 bf c9 47 e5 77 48 9c e9 bf
       -0.3180638244411021 -0.8003275243483979
000020 42 43 a2 4f 97 2e fb 3f 77 6e a1 50 86 db bf bf
       1.6988747702309444 -0.12444343060035999
000030 b8 b9 20 83 d0 12 ee bf ef 18 8b 42 3d 2f df 3f
       -0.9397966919985299 0.4872582578503985
000040 a7 15 e1 c9 3d a0 00 40 b9 cd 9d b1 ac 5c f2 3f
       2.078242852384125 1.1476256311551494
000050 44 90 a7 c9 0e d4 ef bf 26 94 18 1e 44 31 e5 3f
       -0.994635957581075 0.6622639262974459
000060 54 95 25 1a a9 d8 d9 bf 5a 5f f8 27 35 78 eb 3f
       -0.4038489108409824 0.8584237843196931
000070 56 6c 3d 8c 4d 5d f7 3f 06 09 59 a1 fa 93 e6 3f
       1.46027903348183 0.7055638457607365
000080 5e 8e c1 2f ff d7 c6 3f 75 b5 19 72 08 a3 e7 3f
       0.1784666999038675 0.7386514881633689
000090 d9 30 de 88 67 02 e2 3f 20 6c 0f 03 1f a6 dd bf
       0.5627935097886861 -0.4632642297635261
0000a0 55 6c 7c 6e 97 9e e1 3f 2c c7 36 d1 ee fc ea 3f
       0.5506093175821528 0.843375595685051
0000b0 f2 bd 13 08 4d f5 d6 bf 83 d4 3c 61 a6 3a fc 3f
       -0.3587219790342423 1.7643188284248772
0000c0 d9 b8 0a de 80 98 d4 3f 14 85 ee e1 8e 50 02 40
       0.3218080681207432 2.2893350268283346
0000d0 1d c1 4b 52 47 16 e5 bf 90 72 d2 61 9c 67 f2 bf
       -0.6589695556013201 -1.1502956219839326
0000e0 ff bc 6e 21 52 5c c3 3f 1d 18 21 a5 6f c9 e0 3f
       0.15125490791749738 0.5245893693143021
0000f0 c9 11 ba ee cc 47 de 3f d6 14 c2 a5 7b 94 f9 bf
       0.4731323558155763 -1.5987507319380732
000100 a8 a1 1d cd ea f8 ea bf e0 15 0c a7 22 c1 e8 bf
       -0.8428853994528724 -0.773576093925552
000110 da 32 25 b1 81 37 d8 3f 8f b4 dd e4 da 79 e5 3f
       0.37838785456987767 0.6711248846092007
000120 eb c5 7d d5 31 c9 f9 3f 4d bd 64 ff dc ec f1 3f
       1.6116197909835772 1.1203279472645875
000130 c0 aa 69 d2 aa 6f e1 3f 54 48 91 11 1f c1 e1 3f
       0.5448812589287044 0.5548243849864414
000140 d5 b4 a3 00 b3 fa 06 40 f1 fa b0 54 31 81 e8 bf
       2.872411732669756 -0.7657705930831452
000150 16 75 14 72 b4 a0 f0 bf d1 89 10 fa d6 7d a4 3f
       -1.039234586357741 0.04002258112474844
000160 f3 56 97 7d 91 58 e6 bf 67 3e 46 bd bc 73 f0 3f
       -0.698311562819724 1.028256167748532
000170 fd 69 ea 17 a4 54 f7 bf 20 b3 81 4c b4 88 ec 3f
       -1.4581643041807404 0.8916875356931975
000180 12 a9 22 9b 73 43 ca 3f 8a 82 20 09 2a 2f d4 3f
       0.20518345904321983 0.31537867442424583
000190 94 d9 3e 8e 7d b6 ea bf 80 3a 03 93 a0 b5 e7 bf
       -0.8347766664726799 -0.74092129434014
0001a0 74 b3 67 0b c0 f2 ae bf 1e b7 dc 77 b5 e2 ed 3f
       -0.06044578685018723 0.9339244214113227
0001b0 a9 a6 ac cc ad 1c ee bf 87 c5 1e 40 6b 02 d2 3f
       -0.9410008428141811 0.28139764081705504
0001c0 2b 08 64 a6 86 12 e3 bf b3 99 e1 a8 14 ee df 3f
       -0.5960114717311219 0.498906292842004
0001d0 4e b9 d2 0e 46 55 f2 3f 13 83 53 3a 38 23 f2 3f
       1.1458187655476482 1.1335985449188157
0001e0 e1 94 cc 48 cb 73 ba bf 8d 3a a0 d4 4c 67 ce 3f
       -0.10332937743494909 0.2375274694645281
0001f0 40 e5 cf d0 7a 28 d2 3f b3 15 70 0b f1 4e c5 3f
       0.28372068778806536 0.1664716058586869
000200 43 2b 20 58 18 45 f8 3f 0c 06 e5 97 17 00 fd 3f
       1.5168689196022604 1.8125225003608447
000210 9e 0c 15 fc 56 5b e4 bf 7d f4 69 fa 55 7a f1 3f
       -0.6361498759728368 1.0923671514313178
000220 dd 11 1a 5b dd 90 d9 3f 09 7c a0 46 c0 30 ba 3f
       0.39946683785117704 0.10230638241090174
000230 9b e7 17 cb 78 75 ec 3f 72 43 eb 6f 20 b0 e2 bf
       0.8893398253123793 -0.583999842254441
000240 b5 be 41 73 75 ed d6 bf c9 e4 6a 04 d9 5a 00 40
       -0.3582433343462797 2.0443592400666586
000250 15 d9 7e 69 86 22 d7 3f e5 91 6e ee 7b 63 e0 3f
       0.3614822416524402 0.5121440560220064
000260 8e 53 90 c7 c8 de e9 3f 19 12 96 51 3c 07 fa 3f
       0.808445348523138 1.6267665087663146
000270 fa 21 92 19 69 56 f5 3f 43 0e 09 d9 6a 8b eb bf
       1.333596324811991 -0.8607687224361559
000280 8b 16 66 06 04 43 f5 bf 0d eb c4 0b a5 1f e7 bf
       -1.3288612604095842 -0.7226128797404684
000290 bc 6c a0 68 44 9f 82 bf 07 7f d5 ca b9 bf e4 3f
       -0.009092840617134328 0.648404022369477
0002a0 9e fb d1 9c 3e d0 e1 3f 6a 83 87 f4 78 88 e1 bf
       0.5566704810042784 -0.5479092384303901
0002b0 35 0d cf e4 48 f9 d6 bf 2c d2 13 6e fa 2f c2 bf
       -0.3589651331387416 -0.14208917975305846
0002c0 32 25 7a 32 50 bf e1 3f b7 90 a2 ca 62 ef ea 3f
       0.5546036706811377 0.8417219121661422
0002d0 fd 14 4e 8f f8 c3 c4 3f c0 d5 18 22 30 c3 ab bf
       0.16223055836977798 -0.054223541414482934
0002e0 07 f7 c4 be b2 11 e7 3f 54 9b ea e2 68 3c e2 3f
       0.7209104276623471 0.5698742324792456
0002f0 9a 86 9a 4a e9 e8 ed 3f 07 e2 14 34 9d 29 da 3f
       0.9346815545179255 0.40878992162791444
000300 e9 9d c2 cb 91 69 e7 bf 90 fb a3 94 6a 48 f8 3f
       -0.7316369037334286 1.517679768206765
000310 71 5a 99 9a 71 f5 f5 3f 88 18 72 bd bc 06 c5 3f
       1.372422794249044 0.16426810503270795
000320 12 c1 46 e9 0e 0e e4 bf 54 6c 1f 80 a2 0c e2 3f
       -0.626716094606339 0.5640423300168416
000330 3f ea ce fa bb 99 f7 3f d9 e0 97 6c f7 33 f6 3f
       1.4750327870557525 1.3876871339726249
000340 81 0a b0 b1 ca 28 07 40 6d 81 bb f5 91 9b cb 3f
       2.894917858300062 0.2156851243844459
000350 f7 01 76 ef f4 80 bc bf fb 21 2b 4b 9b 23 db bf
       -0.11134272428717638 -0.4240482553546198
000360 6a 9e 1a 7b 29 fe ca bf 3a 45 bf e0 b6 61 f1 3f
       -0.21088140974937924 1.0863560465989637
000370 d8 da d2 f3 dc fd eb bf 5b 51 22 30 62 a6 cc bf
       -0.874739147394247 -0.22382762289329147
000380 3b 96 2f 3e dd f2 e0 3f f6 6a 3d 48 35 cd a1 bf
       0.529646512467202 -0.03476873881182556
000390 ac cd 92 af 32 d7 d3 3f 97 d5 78 67 56 75 e4 bf
       0.3100096430382233 -0.6393234272897413
0003a0 c5 15 e9 73 51 b3 db bf 50 52 b9 52 5d cb d7 bf
       -0.43281971282371173 -0.3717873866892534
0003b0 3f ee a2 63 f4 ac fa bf 04 1c 05 01 17 bc df bf
       -1.6672252552078957 -0.49585509395222993
0003c0 fb 17 9f be a9 b4 e3 3f 29 e1 a2 2d c6 50 e6 3f
       0.6158035967898735 0.6973601237614605
0003d0 76 57 1e 59 8a 17 e0 3f bf f7 65 21 67 70 b2 3f
       0.5028735867115148 0.07202763142956224
0003e0 e8 4b 15 d7 c8 06 f9 bf 33 84 72 32 0f 9a 83 3f
       -1.5641563798606004 0.00957118866637261
0003f0 fb cf 2e 87 72 cf e4 bf 10 9f 0c cc e6 2d dd 3f
       -0.6503231659212355 0.45592660834016474
000400 b1 bb 91 17 4e df c4 3f 6b af d7 81 45 96 e4 3f
       0.16306472922175666 0.6433436904894568
000410 94 7a 85 1c 36 c9 e9 bf bf 4b 22 83 e9 28 f3 bf
       -0.8058119351442934 -1.1974883196278225
000420 d9 4b 5f e3 f1 40 f3 3f bf d3 c6 8f 69 b3 b0 bf
       1.203355682537895 -0.06523761520550318
000430 b7 2e 97 89 6a 5c eb 3f b6 e0 65 e5 49 67 e6 3f
       0.8550312697711523 0.7001084785870464
000440 8c c7 73 9d 54 b3 f2 bf fe fd 39 0a b4 92 da 3f
       -1.1687818670729682 0.41520405768093827
000450 ec 1b e6 e2 27 a2 d2 bf 25 65 03 6b 06 be db 3f
       -0.29114720495311874 0.4334732098628414
000460 68 1f 2b 8e 0c 5e bc bf 8a b6 30 4c 22 1d d2 bf
       -0.11081007452878355 -0.28302819672067214
000470 29 1d 8d d6 26 7b e7 bf 4c d3 b9 68 c5 7c f1 3f
       -0.7337831678823125 1.0929617014746382
000480 71 83 29 bf a6 8b f4 bf 05 db 67 a7 57 6c d8 3f
       -1.2840945689460705 0.38161269520007607
000490 67 43 b3 98 a1 e2 d9 3f f8 b0 7a 32 02 df d5 bf
       0.40445747291692274 -0.3417363636933852
0004a0 3d 79 fe d2 dc 25 f2 3f f4 eb 8f 00 46 1d d4 3f
       1.1342437974886501 0.3142867093553712
0004b0 76 94 a0 bc 05 5c f2 bf 18 d3 e6 cf c7 e8 e0 bf
       -1.1474664085629036 -0.5284155903414982
0004c0 a9 1f 82 18 7b c4 eb 3f a9 99 b9 f6 b2 d5 b7 bf
       0.8677344778707169 -0.09310453914222329
0004d0 33 9d 8d 13 e7 4b d7 bf e3 0e 09 ad 31 f9 c9 bf
       -0.3640077296208403 -0.20291729878419237
0004e0 c5 ca 61 3c 8f b6 cc 3f 88 1d 67 69 74 3f d6 bf
       0.22432127426471574 -0.3476229695629276
0004f0 4e 3c 0a 2d ba 6b f4 bf a9 46 5b cd 3a c3 d1 bf
       -1.276300598084862 -0.2775408749995259
000500 9f 62 c8 b6 0d 39 bf 3f a8 8a 00 9f bb 2e df bf
       0.12196431839437104 -0.4872273495440518
000510 69 84 c5 99 71 65 a0 bf e5 21 4b 8a c5 ef ec bf
       -0.032023954411450735 -0.9042689991993568
000520 5c 2d 8e bc f4 a6 ee 3f 31 f4 04 ec c7 28 c0 3f
       0.9578803713533648 0.12624453567869545
000530 24 11 f3 ed 61 25 f5 bf 5c b2 bf fc a3 5e b7 3f
       -1.3216265959645819 0.09128785057664274
000540 87 ee 09 13 1f ca ab bf ff f9 90 a8 53 e8 da bf
       -0.05427643878371407 -0.42043010198167957
000550 de c4 b6 98 4c af d7 bf 0f 95 20 fc d2 db f0 3f
       -0.37007441438170285 1.0536680077287348
000560 75 c7 9b 6b 83 52 ea bf 1f 18 6e 14 1a 7c f3 3f
       -0.8225724317291979 1.2177983091401143
000570 5c d6 9c 41 24 79 f1 3f fd 76 1e a8 df cd c6 bf
       1.0920755923265437 -0.17815776547370624
000580 24 02 13 0a 5e 70 f1 bf 14 9d 27 3f a9 f9 d8 bf
       -1.0899334329152532 -0.39023810546355375
000590 62 84 e4 c0 4c d3 bd 3f 87 1f 3b 5c 55 ea e0 bf
       0.11650542935650912 -0.5286051560769786
0005a0 81 d3 62 3f 53 f3 aa 3f b0 29 f8 dd 6f 7c ba 3f
       0.05263767384295815 0.1034612576405951
0005b0 db 3a 12 09 b5 7c e0 3f d5 c6 f1 e2 dd fb f0 bf
       0.5152230431720811 -1.061490904332847
0005c0 8a 07 a1 ac ef 55 eb 3f 4d a6 4d 00 ca e8 c2 3f
       0.8542402621899197 0.14772915854273308
0005d0 37 6f 1a 34 13 59 ec bf 0d 19 90 0b 79 d0 d4 3f
       -0.8858734147683894 0.32522417191684455
0005e0 d6 da 7c 00 8a a3 b0 3f b9 c2 59 9f d3 bb d2 3f
       0.06499540817172131 0.2927140289457771
0005f0 48 b1 a3 a2 d2 08 b1 3f 24 94 54 9b 04 63 a3 3f
       0.06654087515534457 0.03786482235072011
000600 7c 72 8c e0 1c 23 ea 3f 91 dd 96 ca 89 63 cd bf
       0.816786230632331 -0.22960016624504623
000610 7b 40 65 57 53 eb f8 bf 25 4d d4 71 86 31 bb 3f
       -1.5574525274169264 0.10622444418941208
000620 39 0e bf 5b 52 d2 c1 bf a9 ed c6 5b 20 e0 d4 bf
       -0.13923100929069834 -0.3261795898685827
000630 72 8f eb 25 d8 f1 d9 bf 5e 20 06 f5 0e ea fa bf
       -0.4053860063852347 -1.6821431704757042
000640 95 b6 46 b2 64 e7 ce bf 30 e1 fc c3 18 a1 e3 3f
       -0.2414365644921658 0.6134151294600425
000650 28 81 18 61 b9 0e e8 3f 0c 54 39 e6 02 b9 e6 bf
       0.7517973801041409 -0.7100843903123191
000660 f0 7c 90 8d a2 a9 d1 bf 65 79 d0 12 2f 2f d5 3f
       -0.2759786970581919 0.33100487553919883
000670 ae 18 ac bf 83 70 d3 3f c7 a1 a5 5d 2f d7 c6 3f
       0.30374234884255713 0.17844192574126636
000680 35 26 e7 d7 68 0d ea bf 28 53 40 ba 1d ca e1 3f
       -0.8141369072774923 0.5559223783226104
000690 1b dc 43 7e c9 c9 e1 3f ae ff f0 87 00 56 00 40
       0.5558822122683326 2.0419932003423673
0006a0 4d 9e 2c 03 ce 36 b7 bf cc 79 71 2f d0 4f e8 3f
       -0.09068000390527083 0.7597428251863731
0006b0 94 25 b8 87 4a a5 eb bf e5 20 b8 ad 5d d0 c5 bf
       -0.8639271403091464 -0.1704213236082587
0006c0 2a 53 a5 3d 5e a9 ce 3f 39 27 54 48 e8 7d ba bf
       0.23954370508240547 -0.10348369375074364
0006d0 55 1b 6b a8 c1 f3 d0 bf 8b 02 57 a5 9f 77 d8 bf
       -0.2648777146063613 -0.38230124613259225
0006e0 61 4b 4b 5e d9 3d e6 3f a1 8b a9 66 f7 4c eb bf
       0.6950499383623133 -0.8531453137514867
0006f0 b0 03 c6 27 76 16 f0 bf a4 63 91 98 a6 db e2 3f
       -1.0054837754871464 0.5893128375856702
000700 a0 75 86 88 fa 60 d9 bf 0b f4 b7 78 2e 24 f3 3f
       -0.39654410679380625 1.1963333812302632
000710 7f a2 b9 1c dc b3 e0 3f 5b c2 b1 a0 de 46 f5 bf
       0.5219555436170394 -1.3298021580814268
000720 00 dc d6 2d 00 a0 db bf 7a 69 d7 fd 71 6e c3 3f
       -0.4316406676911697 0.1518080224476071
000730 c5 1c 68 91 39 d4 c4 bf 45 4d f2 b2 94 1c 06 40
       -0.16272658920227037 2.763955495852914
000740 cc 8f 90 cb 9d 7c d4 bf db 68 30 c3 e9 39 fd bf
       -0.320105980676314 -1.8266389488767831
000750 30 56 fa 03 6a 22 cf bf 9e 18 ab 24 29 fe ac 3f
       -0.243237735693286 0.05662659237491251
000760 a2 3b dd 60 dc 86 cb bf f6 79 e5 5d 2f 64 da 3f
       -0.21505312661835513 0.41236480874604753
000770 ab 55 2c 30 74 30 d1 bf 55 0a 7a 82 0c 14 ab bf
       -0.26858238891994785 -0.05288733570798302
000780 81 5f 75 65 f3 d9 67 bf f9 9c 12 ae b4 b4 da bf
       -0.0029115442118090033 -0.4172794055870806
000790 4c 17 e6 96 0a 68 a8 bf ef 13 d2 a4 a8 cb f4 bf
       -0.047668772621405425 -1.2997213781648005
0007a0 78 1e 0f ae 6f 7c cc bf 6d 0d f0 29 98 47 f5 bf
       -0.22254749297120546 -1.3299790991012188
0007b0 03 f1 0f bc bb 44 db bf 4b b4 71 65 df ca ec bf
       -0.4260701500459307 -0.8997647267657468
0007c0 f0 c4 1b 0d a2 8e ee 3f 2f ff 85 e5 3a e6 ed 3f
       0.954911256411064 0.9343542559508701
0007d0 9d b2 ab 0f 36 54 df 3f 52 c5 8b ed d3 b6 b7 3f
       0.4895148423227427 0.09263348149740594
0007e0 b7 fb ef e5 4d b0 b9 3f 10 04 24 0b 5b f5 cb bf
       0.1003464399691286 -0.21842515987376077
0007f0 af 7a 15 74 ca 1c f3 bf 30 e6 e0 eb 50 89 82 3f
       -1.1945290121581527 0.0090509721741113
