core/models/lora_weights.npz (npz, 477673 bytes, 192 tensors)

transform.0.head.0.query.lora_A f8 [64, 8]
-0.025752333663630736 0.17287679221913999 -0.7388220079912919 -0.23292088378749415 -0.27668710662728946 -0.17088439112553377 -0.46131861203657115 -0.5244606782043614
0.7345207071313704 0.11210190345575638 -0.012743994842207612 -0.5295002526798395 0.00899200903027355 -0.5458479474794393 0.03208135372654227 -0.01123712336831244
-0.08272479632898945 0.4806426795711144 -0.14284957989131064 -0.08678466220887994 -0.06072210739455062 0.22241450837616075 0.7292949417546971 0.6002667798279461
-0.23418987027394603 -0.16111983743989883 0.024602470328694677 -0.26977695841000465 -0.3941940664088983 -0.2764153476935541 0.02277297040338799 -0.040188141702722606
0.26879463246867963 -0.4684007186056792 -0.3341875156320105 -0.09669130869333561 0.47882688064912665 0.06692032282185652 0.3227910610026563 -0.23081449617326455
-0.00025431048065391976 0.6623248268631104 0.2653221994155127 -0.6895171991345034 0.14552931566940766 -0.13111804246893308 -0.21222289093786936 0.05312438787113654
-0.07792326524396456 0.6148323217788003 0.15461198127617987 -0.35673316659883636 0.3400338541825864 -0.3188097127703209 -0.23521998257416785 0.3834702439069152
-0.4827177906848511 0.08648834106875884 0.16869438985682378 0.10801989156861218 0.16171347118175874 0.04837431102076065 0.0022149090043549163 -0.15848651290359927
0.2667597129382097 -0.20583679655331957 0.35258927375939775 0.37484429899226146 -0.07944555864137832 0.7311173458467985 0.2783978200262961 -0.0816474747123811
0.5451014310546355 0.25106397613298953 -0.010350287834420576 0.08507054886651277 0.2867457538128296 0.4835065567201377 -0.2204030622773818 -0.7269661566403404
0.24979673834066846 0.030255133953737103 -0.03406965540525451 -0.54450084820041 -0.09647990865256369 0.040857784193246205 0.7802978050429604 -0.402048822339307
-0.07022684761282871 -0.10389471704831998 0.9178735852097812 -0.8125965407131198 -0.12116603652743642 0.3766027552717984 -0.058604144927825993 0.3986719721100969
-0.4323564183076053 -0.004694628101162504 0.1489587036043184 0.1706821263160266 0.11095833783881631 0.014805879653454682 -0.2113472595504238 -0.37378696310626996
0.16984849303586377 0.7568486013812263 0.3131227171195253 0.45565770293263347 0.08065368114070465 0.05312251228846366 0.10666174418983976 0.037926388468240924
0.18037362817848993 0.13955061006490788 0.05136734152822264 -0.5276265951540985 1.0118279456543182 -0.5555778491500613 -0.31053576540731814 -0.375155428737477
0.14970660983670903 0.42867438532596863 -0.49571096760231337 0.1564821003686966 0.34976667051814647 -0.05982584800496617 -0.3319069284947236 -0.06595612173083804
-0.47798734327001513 0.1674387901251579 -0.07415301428274051 -0.2055365453480239 0.48507950376954134 -0.0728117385365652 -0.1487681589756003 -0.5989264312926386
-0.12248864132750054 -0.40613196058882123 -0.20616141867822615 -0.021437280850482594 -0.17509341124256456 -0.032961727822422314 -0.1238108863812414 -0.031055225619218314
0.2449696935581582 0.33814505767188074 0.032562159247745914 -0.2700565407627042 0.08030806203513466 0.19984041528992996 0.3572754250359674 0.046028435958327105
0.12935833543354433 -0.12739940055037136 0.34068330562079346 -0.17433599639290812 0.09374711899772067 0.3868414557214172 -0.2097702447875479 -0.34050627538960154
-0.4002799330488724 0.10917294035387719 -0.2943112954739176 0.05592113125999409 -0.5888622855678011 0.3572045734908046 0.05283099539716245 -0.831128899253217
0.45232705536571116 -0.3886366749022081 0.2605869051134896 0.7247395063931945 -0.16905811401292348 -0.23821433001820014 -0.18081356167667628 0.3815063732056715
0.17025231298291169 0.39993710204982186 0.08169217279256456 -0.15315018897912447 -0.03234852271162758 0.6637691474310582 0.6379346997553816 -0.4537665951561156
0.3665199008588983 0.18394809275309978 0.12673700345912137 -0.2757653204439047 0.4110745795520104 -0.05906765674005103 0.4356120148357976 -0.19967274624829304
-0.14960114507880182 0.315954222484862 -0.5989845278275363 0.4191650038833659 0.12465207687187187 -0.1838219412003178 -0.024871087330499145 0.2304285111068218
-0.18537965070094084 0.2563878637286091 -0.20823180499111962 -0.145588131846527 -0.3942084702210766 0.7036745042124554 -0.15308757771114173 0.6851134985057344
0.4998245640047924 0.35135465402622823 0.09082813872039561 -0.33470420380345667 0.24944087343101398 -0.5773316256092431 0.44044338370250685 0.09367373411925943
0.10061231644542938 0.9088851659928546 -0.47879570639107605 0.014439169358438166 0.023338189166816334 -0.1670123343154751 -0.1262878644002736 -0.38521795429515826
-0.5088076086950558 0.5115860148137753 0.1339849365453118 -0.40477899735540085 -0.11113191896414647 -0.35313853695630004 0.6999824070103708 -0.21850900607869606
-0.15788737660548233 -0.023694143292047855 0.1878208629232076 -0.30569882641418916 0.410712615214966 0.005081536522595797 -0.3712523356445765 0.6072254941654432
0.08650475569801153 0.27958973533337345 -0.16751820600207284 0.028976320120865665 0.40241621926695453 0.12919147288347071 0.3270858361501219 -0.1892888489631357
-0.08462911533071975 -0.3973697607628132 -0.5397016434774354 0.10545300149071236 0.10535897436839263 -0.44960509674320404 0.06972821718754196 0.3332214601216042
00000000: 041e 86db d15e 9abf acc7 68a4 d320 c63f
00000010: a067 3c0d 6ea4 e7bf 2a1b 36fd 59d0 cdbf
00000020: c619 8cd6 3db5 d1bf 20f9 a32b 8adf c5bf
00000030: 81ec ee7f 3e86 ddbf 6f9f 9dc2 61c8 e0bf
00000040: 22a6 eb91 3181 e73f 3c6d 29d9 b5b2 bc3f
00000050: dd98 8a08 8619 8abf 097a 8f83 aaf1 e0bf
00000060: 0cd2 ae05 676a 823f d269 601d 9677 e1bf
00000070: 9b41 229a f76c a03f 19b4 f12a 7d03 87bf
00000080: 1120 cdc6 732d b5bf ae76 7483 d9c2 de3f
00000090: d4b4 f020 e548 c2bf a146 fb05 8537 b6bf
000000a0: 2dbe ced2 f716 afbf edd5 d01f 1478 cc3f
000000b0: 5330 7f58 6256 e73f 738f 87ad 6235 e33f
000000c0: 41c7 f004 eff9 cdbf 1a46 4528 939f c4bf
000000d0: c2a7 d9d5 6331 993f eb75 6593 0644 d1bf
000000e0: dc38 e0bf 793a d9bf c133 9dff c9b0 d1bf
000000f0: 5f18 762c cc51 973f c7b4 9944 8a93 a4bf
00000100: bcc5 f266 ee33 d13f 0665 f501 47fa ddbf
00000110: 09be 9708 5463 d5bf 7e33 a5f8 c2c0 b8bf
00000120: 3f5b 3580 19a5 de3f a527 f5b5 b021 b13f
00000130: a8a4 9cd6 9ba8 d43f b8e1 4054 548b cdbf
00000140: 7a56 8b32 9faa 30bf e996 d6d5 c331 e53f
00000150: 5e1d 59f6 09fb d03f a3fd 895f 8610 e6bf
00000160: 1d66 b461 b4a0 c23f dfe8 28dc 79c8 c0bf
00000170: 6f36 05a4 1e2a cbbf 0798 0da9 1e33 ab3f
00000180: 3203 d273 c7f2 b3bf cc09 52d5 b4ac e33f
00000190: 8e52 934d 53ca c33f 8231 fc58 b7d4 d6bf
000001a0: 87cf cf5a 1dc3 d53f 40b9 7fda 6067 d4bf
000001b0: 67c8 423a b01b cebf 2270 24c7 c68a d83f
000001c0: 7215 0c29 d9e4 debf 2b28 6094 1924 b63f
000001d0: e613 ba1b c797 c53f b3ca 9a0d 31a7 bb3f
000001e0: 712e 06eb 06b3 c43f 45f5 9987 84c4 a83f
000001f0: b720 9837 0025 623f d896 e33a 4949 c4bf
00000200: f76f bd54 9712 d13f d544 c132 dc58 cabf
00000210: 66e3 ed99 d290 d63f 3ee2 50f1 72fd d73f
00000220: 055b 2d4c 8b56 b4bf 0869 3e34 5065 e73f
00000230: c699 1217 45d1 d13f 58cf b051 d9e6 b4bf
00000240: 193d 6c8e 7871 e13f 7b79 aca3 6e11 d03f
00000250: f130 061e 8832 85bf 6804 3cf9 2ec7 b53f
00000260: 6d26 b9dc 0a5a d23f 8fee 207c c5f1 de3f
00000270: a7b5 35e4 2a36 ccbf dd35 8287 4e43 e7bf
00000280: be0a e9ea 56f9 cf3f b737 78ab 33fb 9e3f
00000290: 2dcc 80ef 9371 a1bf db47 f50a 8d6c e1bf
000002a0: 9542 6244 e8b2 b8bf f845 cbbd 4feb a43f
000002b0: 699a 391a 33f8 e83f c7ed d5fb 2abb d9bf
000002c0: c05b ccfd 62fa b1bf 1020 f31b d898 babf
000002d0: 30d3 ca6c 385f ed3f 2194 e675 ca00 eabf
000002e0: a972 45c4 bc04 bfbf 9574 5e71 421a d83f
000002f0: 7607 c0cb 5c01 aebf 35dc 8272 d783 d93f
00000300: f632 3641 baab dbbf 83fe 94a2 ac3a 73bf
00000310: 84b1 372c 1411 c33f 6b00 4573 e9d8 c53f
00000320: ec79 3c00 c467 bc3f 7567 3387 8b52 8e3f
00000330: 4124 ef4f 6d0d cbbf 0b9b 8d27 20ec d7bf
00000340: e394 6e6d 98bd c53f 2895 de8e 1a38 e83f
00000350: ed6e 6add 330a d43f 8108 11ed 7e29 dd3f
00000360: 8424 cd3a b8a5 b43f b1ad ebb9 df32 ab3f
00000370: 1899 071f 2f4e bb3f d0c2 406c 166b a33f
00000380: 7d32 0ba9 7b16 c73f e4cc 2e5d cbdc c13f
00000390: 9071 e4f7 d14c aa3f 53f9 552b 51e2 e0bf
000003a0: 023a fc7f 7230 f03f bb68 8f32 4bc7 e1bf
000003b0: a76a 2a67 d1df d3bf 6009 56ea 8b02 d8bf
000003c0: 7831 9f10 9629 c33f 73e8 66b0 666f db3f
000003d0: 7ab5 877e bab9 dfbf b418 bfff 9a07 c43f
000003e0: becc c6be 9362 d63f 320a 4659 7ea1 aebf
000003f0: 6cd7 cc8e f63d d5bf d410 ce19 80e2 b0bf
00000400: f6c8 cf39 5897 debf 9ead d55f a26e c53f
00000410: 5483 3e23 b1fb b2bf dc87 3382 054f cabf
00000420: 0e9b 29e7 8a0b df3f 108a c743 caa3 b2bf
00000430: 2240 bec4 d50a c3bf 7894 63c3 672a e3bf
00000440: 1c12 a264 6a5b bfbf e1b7 25e8 10fe d9bf
00000450: c1c0 7553 7f63 cabf 8505 ac90 a7f3 95bf
00000460: 1615 84fd 7569 c6bf 9bae 080e 5ce0 a0bf
00000470: 996d e5fb 11b2 bfbf 9226 9ee9 f0cc 9fbf
00000480: 8ff5 2bbb 2a5b cf3f 044e 002b 2ba4 d53f
00000490: e8c7 1cc2 fcab a03f 9f63 a93a 9b48 d1bf
000004a0: 72c9 0bb4 118f b43f 6e6e 0be8 5e94 c93f
000004b0: 296a 8cbe 99dd d63f 160c 4106 0a91 a73f
000004c0: 0f77 135e d08e c03f a869 72a1 9f4e c0bf
000004d0: 89ce fb59 c1cd d53f 69f5 8255 a450 c6bf
000004e0: 867e 30aa cfff b73f 8bdf 43aa 02c2 d83f
000004f0: d4a9 845a c0d9 cabf 1464 38d5 daca d5bf
00000500: 9328 6cb9 2f9e d9bf 6b95 6d00 c2f2 bb3f
00000510: fdd8 390b ffd5 d2bf bf80 d5cb b1a1 ac3f
00000520: 8f91 4bb8 f5d7 e2bf 02fa 4792 70dc d63f
00000530: 2652 e40a aa0c ab3f 8db2 21a2 9b98 eabf
00000540: ca11 792d edf2 dc3f 74cb 2e5c 6cdf d8bf
00000550: 5a9c ceb2 74ad d03f 987e c2e7 1031 e73f
00000560: 888b 673f b2a3 c5bf b4f0 6ea2 ce7d cebf
00000570: 9c8c 0917 e624 c7bf 4e92 08b5 996a d83f
00000580: 313c 2aea d3ca c53f 37b4 70c9 9198 d93f
00000590: ffb5 7b3a c7e9 b43f d051 85e6 6c9a c3bf
000005a0: 009f 3d4e fc8f a0bf 23ed 89cb 983d e53f
000005b0: acda 0d08 f669 e43f 549e 8d0b 830a ddbf
000005c0: 966a e1e2 0f75 d73f 2da0 4471 9c8b c73f
000005d0: 4265 860a eb38 c03f ab5c 2b96 23a6 d1bf
000005e0: 3524 d9c0 0b4f da3f c655 e6ab 1d3e aebf
000005f0: 04b9 5d37 11e1 db3f 81fb 8465 e08e c9bf
00000600: 9b5f c75c 2126 c3bf fdc1 260f 9838 d43f
00000610: 6289 ba99 e12a e3bf 1da2 d373 99d3 da3f
00000620: 090d 8bd1 32e9 bf3f 840d df34 7a87 c7bf
00000630: c143 cd6a ce77 99bf e787 a273 ae7e cd3f
00000640: 6f5e 8d38 85ba c7bf 4690 73a4 a868 d03f
00000650: a142 36fc 56a7 cabf 8db8 7bc4 a1a2 c2bf
00000660: 37f7 d929 b63a d9bf 69e3 d364 8084 e63f
00000670: 2ebb d8ad 5f98 c3bf 352b c424 73ec e53f
00000680: afd5 082b 20fd df3f 4cc3 153b 987c d63f
00000690: 9653 5c4d 8340 b73f 28da 4a2e cb6b d5bf
000006a0: 2d00 d6b4 aded cf3f dc05 5e2c 8079 e2bf
000006b0: 697a 2f72 3930 dc3f bb52 8978 00fb b73f
000006c0: 633a b590 bac1 b93f 6f48 f857 9615 ed3f
000006d0: 8e8d 1abf 96a4 debf ce3c 6881 4892 8d3f
000006e0: 0c9a e05c f7e5 973f 53f0 f400 a960 c5bf
000006f0: bf8c bd63 332a c0bf 0ee7 e134 69a7 d8bf
00000700: ada3 e9e4 2648 e0bf 97ea 56a2 e95e e03f
00000710: 2e33 4f1c 6b26 c13f 89f1 ef2a e6e7 d9bf
00000720: a323 7e35 2473 bcbf 6cd0 cb60 d299 d6bf
00000730: 2251 3c81 4166 e63f c8a6 7e65 1af8 cbbf
00000740: 5b63 7c4f a735 c4bf 7730 2f0a 4743 98bf
00000750: 967e e197 830a c83f 31f8 77cf 9190 d3bf
00000760: 4bc9 9990 1d49 da3f ffff d892 60d0 743f
00000770: 740d 0a28 99c2 d7bf d79d d728 646e e33f
00000780: c8e2 abf8 2c25 b63f f176 6358 cce4 d13f
00000790: 2aba 2190 3c71 c5bf b434 1ced f7ab 9d3f
000007a0: 116b 48f5 2fc1 d93f 2271 7a9f 5889 c03f
000007b0: 40f9 4f6e f9ee d43f c0a6 e5f3 9d3a c8bf
000007c0: c385 a2f2 40aa b5bf f351 b993 816e d9bf
000007d0: 3da8 8a61 3c45 e1bf 09eb aac8 f7fe ba3f
000007e0: eb99 4045 cef8 ba3f 6620 a874 54c6 dcbf
000007f0: f0ca 6d5c b5d9 b13f d50c 631a 8053 d53f

transform.0.head.0.query.lora_B f8 [8, 8]
-0.018130112613228715 0.021787925400424412 -0.007464839785781863 0.004669085515492672 -3.768497776209125e-05 0.03786935685785149 -0.003277592304845298 0.018708113318070624
0.007352905779428363 0.0021492948149675313 -0.008039372999152678 0.001084005428964971 -0.0054331670099728715 -0.00025367423362099593 0.004524560296044607 0.012234517546292406
0.013634909190695977 -0.025823188277460083 0.01685019188672223 0.01047723895334078 -0.003550466600818041 -0.04082767692158611 0.007002993096324259 -0.00441849925745974
-0.012026983564192153 0.005847457380059412 0.009013349996324598 0.00021804231950392014 0.0003695648034657813 0.008111573348575712 0.0006341843673804393 0.001128095536934942
-0.012531713903572638 0.028008412264251336 -0.015794735249284278 0.00946901279236091 -0.006138835291446296 0.05879015747347967 -0.017836919070343883 0.03437322329062506
-0.006338719224334224 0.010932956547415674 -0.0073045336521440855 -0.0013148883350361843 -0.0016384405667762326 0.017840963624636625 -0.003187331380230725 0.01382087468478333
-0.018324710353708022 0.03164333946421849 -0.020397743132087063 -0.012446651130699492 -0.0032665821511944615 0.0483720472320449 -0.007029398094261765 0.012031569493688256
-0.009627749285483187 -0.009702873062143597 0.011875342559698337 0.014112962147541775 0.00025209081738645985 -0.0024098932873316153 0.00308234794078058 0.021413703813781316
00000000: 7e88 fc42 b390 92bf e387 2bec 924f 963f
00000010: a73b ffab 7393 7ebf c7d5 7519 e41f 733f
00000020: e868 eff9 fdc1 03bf 8a36 73c2 9c63 a33f
00000030: 612b 49f8 9bd9 6abf f8e0 7b3b 3828 933f
00000040: f1c3 a69d 141e 7e3f 3a6a 12de 659b 613f
00000050: 37c6 e460 f276 80bf f408 6ef7 a5c2 513f
00000060: 7fd3 f1a9 1641 76bf 3790 8889 f29f 30bf
00000070: d531 0168 5888 723f 2306 f325 690e 893f
00000080: 7ab8 7688 9eec 8b3f d943 85d4 6471 9abf
00000090: e6d4 563c 2d41 913f 977c 4135 1775 853f
000000a0: 0b27 f43d de15 6dbf 47bb 4c82 5de7 a4bf
000000b0: 174c 2aa5 2baf 7c3f 8058 eedc 2119 72bf
000000c0: 6e33 9f68 9aa1 88bf 6dcc 64e3 80f3 773f
000000d0: a963 b15b 9775 823f 4f9b 4843 4994 2c3f
000000e0: e49b a0be 4438 383f 0389 02f2 cc9c 803f
000000f0: ec55 0b8f ecc7 443f 198a 065c 937b 523f
00000100: b385 072b 3aaa 89bf 635a c0ba 3cae 9c3f
00000110: 14ed 60bd 7e2c 90bf 8715 2662 7d64 833f
00000120: 6426 ff0c 0925 79bf fabe 5957 be19 ae3f
00000130: 9a2b 4660 d743 92bf bc5d c8fb 5d99 a13f
00000140: d0cd 45fc a0f6 79bf 87d3 8e96 0464 863f
00000150: 5a37 60d2 5beb 7dbf 165b 6699 0a8b 55bf
00000160: 95c8 a529 1ed8 5abf 0511 30cd e644 923f
00000170: c372 4481 511c 6abf 43a2 2f66 1e4e 8c3f
00000180: ee1d b67e b6c3 92bf 9024 4548 8e33 a03f
00000190: 9978 a85e 25e3 94bf 669a 683c a17d 89bf
000001a0: fb5c 4af0 84c2 6abf 2eed cd91 38c4 a83f
000001b0: 2984 ceae dbca 7cbf 54a4 f5eb 01a4 883f
000001c0: 529b 85a2 b6b7 83bf 904a d593 19df 83bf
000001d0: 36b1 617f 1952 883f 87ad fcb6 41e7 8c3f
000001e0: f3d2 f8d0 6185 303f a5da 639b e9bd 63bf
000001f0: 46ab 37f3 2640 693f ed03 4456 79ed 953f

transform.0.head.0.value.lora_A f8 [64, 8]
0.25171221679977035 -0.2036487910148853 0.10713688500919515 -0.3711901804355603 -0.6201492230453778 0.33979071884465395 0.24325842439212672 -0.37145645228850294
-0.44963799702725443 0.0009834803764835508 0.16577154448689183 0.4458309870451986 -0.009916839473102124 0.4292675088980828 0.9507186096629263 0.6593485470977466
0.6479735054780489 0.17171976079684545 0.3580665073477837 -0.23020411985769718 0.1769675630364505 0.21331245987915481 -0.21378035012093238 -0.1214874086686256
0.46257305354889494 -0.27193265764246755 0.39600016393602283 -0.24925259669956412 0.3343677159179334 -0.3857553883382851 -1.0461471742890718 0.03518702530979278
-0.41836812504305004 0.4596985261745468 -0.11528352009405009 0.07713752358700622 0.12346836135545448 0.010668003690510642 -0.12542731825901007 -0.23758551877180464
0.1096604361679829 0.3127918095952673 -0.22741931391740863 0.06815928935153294 0.7548139164507098 0.39524206016506197 -0.020550989681638702 0.6015980098383172
-0.015898411268385527 1.0546780414334935 0.41897109140634253 -0.7430796694099847 -0.052894787772358676 0.10962220353430407 -0.072529437067399 0.047609200271277616
0.4540152332338857 0.06529444391635994 -0.34489442684629806 0.06487982367109178 -0.21082650062280325 0.12265303566927305 -0.12613590218758028 -0.0703072672340254
-0.007768225735958579 0.1893640146083514 -0.4839007977283233 0.042617024511776076 0.35300222304345263 0.05195393176921057 -0.24117408362698445 -0.0538023048914058
0.5472611117902982 0.5363828089915682 0.5848286561806747 0.12744561281031389 -0.15380890952839354 0.34927939817660686 0.4037190662400443 -0.16688987115240042
-0.18598284789658326 -0.5060360385925508 0.0898899091021871 0.25307099369485425 -0.36611780509965297 0.6154621240677776 0.7982463148626552 -0.1014579132616688
-0.049233135322324685 0.15272167206115345 0.5190050056887585 -0.06369862839170444 0.2810771057971891 0.2463655757142735 -0.4849129050822493 -0.18611585972927266
0.04744381865074074 0.5254462073726374 -0.039902674987263506 1.106855742802579 0.33902841522247174 0.0449206229172338 0.10227951635468605 0.3889136130212523
-0.31322818053491625 0.03560002881637877 -0.05065808635015499 0.37928563931967424 -0.0691868111900158 -0.43895128726714283 -0.30873656868653343 0.17539901117324327
-0.047577305355326435 0.1783227233547436 0.19660494369040746 0.3478570266700259 0.1347867787697289 -0.5065063157069789 0.17232170409682115 0.2712273431032615
0.10336138941495678 0.5291442625557559 0.0258229196324091 -0.6745975951807152 -0.2749561290397443 -0.38069628634014785 -0.17692052109147316 -0.24087549641326478
-0.024017239537165308 -0.17321453426877295 -0.12813256829622566 -0.36372350393886044 -0.4510360965870346 0.027327779924099196 -0.7436116801880573 -0.054122126838728433
0.011547471038496293 -0.06683018469109085 -0.43341754887647566 -0.23568075689242757 -0.25503223224617977 0.1375713937023534 -0.28503349218687724 0.5973576130336502
0.3567583831958979 -0.356883988583734 -0.21607669337755994 -0.5198516165942315 0.18778346799838708 -0.3635326332662025 0.26907429481063855 -0.4660183790547545
-0.33613951735954034 -0.11405308102448745 -0.2321422868987959 0.008263447633839679 0.5114569365926432 -0.025436185123667167 0.6706582915571622 0.35148209583281487
0.2785454974751222 0.5201279641186024 0.20761501571225027 0.5155469063422523 0.6724785234899404 0.159663934307506 -0.4398929007275686 0.5176031739668308
0.13749729293601864 -0.009579808921074831 -0.13422069664113281 0.3584874039279469 0.5669975937227527 -0.766743380398207 0.04494244266009292 -0.4463574127826676
0.3291118727894506 0.025703446765630373 -0.3164937852541745 -0.1406043535068614 -0.39426494798847855 -0.35581044996004596 0.07288295517644751 0.34691549804122174
-0.2732283722855504 -0.2323574466391311 -0.100251596244168 -0.5235602503302009 0.15672523826813584 -0.019992105256431986 -0.6948408723752098 0.03508731614473227
0.13109233994357136 0.19345234495328478 -0.0571879894765426 -0.36579928307699217 0.40461987599294574 -0.16689053571145707 0.4963788057180319 -0.021007592852714235
-0.16824931687135952 -0.16600855608449447 -0.12264782918980657 0.5144755140886461 0.5320334038580591 -0.17957353368926962 -0.15499662965263442 -0.5000057055937567
0.00955050640177923 0.26945532740253353 0.19815656724721054 -0.3578470753603669 -0.4181529535217002 -0.35268176688162745 0.14615208888357337 0.05782527366275324
0.16569592553048504 -0.6521575820073856 -0.08331466010440956 -0.049524182427039286 -0.12580035151667018 -0.04903830808818537 0.20312068527435545 -0.148116908064658
-0.16517133606059625 0.2513205457990098 -0.2874205393138432 0.3364295208136648 -0.6335582222903612 0.05016503983856151 -0.05600212167509241 -0.11609426259731818
0.2721968582277463 0.11552358760350138 0.31819931437523385 -0.18079000998725656 0.40647930849278735 0.17091057712216906 0.22749240894362074 0.2391118167692316
-0.6275660219418762 0.24028461516033933 -0.4158537190825823 0.06734216576002146 -0.03008365428463889 -0.33550138497356113 0.26782545843425065 -0.6005123229937723
-0.009558661683799331 0.4833193170186744 -0.12508229824241374 0.05072130305069516 0.002515226942260603 0.33818238051025534 -0.8480143134478687 0.021866116514915056
00000000: bd27 ca8e 0d1c d03f 0cb2 a3e0 2911 cabf
00000010: 6f4f 4fa9 526d bb3f e24a 6475 94c1 d7bf
00000020: a4d4 f32e 43d8 e3bf 0204 3b92 21bf d53f
00000030: 5fce 9e90 1723 cf3f 51e8 9d48 f1c5 d7bf
00000040: 1d58 1173 dec6 dcbf 0f86 6803 041d 503f
00000050: addc 1681 0038 c53f 03c3 39b1 7e88 dc3f
00000060: e0b5 bba9 474f 84bf 4bf8 fc6d 1e79 db3f
00000070: 6e6d 066f 496c ee3f e365 ce1f 6219 e53f
00000080: 7e7c d6ee 32bc e43f bf85 59c2 e9fa c53f
00000090: d781 b6c8 8fea d63f 30bd 181f 5477 cdbf
000000a0: 3ae1 d883 dfa6 c63f ec50 819b d24d cb3f
000000b0: aafe 258e 275d cbbf 5787 1b7f cc19 bfbf
000000c0: 0f37 4002 cc9a dd3f 167b d23b 5867 d1bf
000000d0: ff36 5412 1158 d93f 2c44 a253 82e7 cfbf
000000e0: e32a 2dd9 4766 d53f 37cc 4a5e 37b0 d8bf
000000f0: 71fd c5d1 04bd f0bf 5fee e5a5 0804 a23f
00000100: 55eb af19 8bc6 dabf dd19 fc5d b36b dd3f
00000110: 315b 9284 3883 bdbf 41c2 19e5 48bf b33f
00000120: 69c5 1c5e 9f9b bf3f 67fd b637 1bd9 853f
00000130: 7345 f99a 000e c0bf 6b65 90c8 3369 cebf
00000140: 5eaf 01d3 b412 bc3f f4c5 2af0 c704 d43f
00000150: fb83 e079 131c cdbf 99f5 ae1e e372 b13f
00000160: 5316 b783 6f27 e83f 2168 9a5a a54b d93f
00000170: be10 5592 510b 95bf 2b04 3378 4a40 e33f
00000180: fd04 d351 ac47 90bf 4e42 fc14 f6df f03f
00000190: 99d1 e31f 6cd0 da3f 2d07 ce03 4fc7 e7bf
000001a0: 80e7 388f 0615 abbf 0865 1863 3310 bc3f
000001b0: 20a7 3308 4a91 b2bf a6c5 4eac 3b60 a83f
000001c0: c205 a8e8 950e dd3f a634 3bfd 22b7 b03f
000001d0: 3329 f812 c012 d6bf 076c d6d0 f69b b03f
000001e0: 530c a7de 5cfc cabf e463 f478 3066 bf3f
000001f0: 5fa1 5fa3 3825 c0bf 2bf7 7035 a8ff b1bf
00000200: f400 be37 93d1 7fbf 041d e47c 143d c83f
00000210: ea17 300d 3bf8 debf 41d3 0f0d e6d1 a53f
00000220: 68c3 d8a2 9697 d63f 1ddb b1ab b499 aa3f
00000230: a00b e9d8 cade cebf 1f80 eac7 f98b abbf
00000240: bd61 30bc 2983 e13f 3d2c d847 0c2a e13f
00000250: 75e8 0196 eab6 e23f 31fd 8449 2350 c03f
00000260: fc01 21a6 02b0 c3bf 1772 15fa 975a d63f
00000270: 1073 917e 88d6 d93f 250d 51b5 a55c c5bf
00000280: 2098 aa34 49ce c7bf db46 8b7d 7231 e0bf
00000290: 1995 d56b 0603 b73f 6b14 5fae 5032 d03f
000002a0: 54b9 d85f 796e d7bf 9287 d99f ddb1 e33f
000002b0: 9b9a 0fdb 3b8b e93f fb17 6153 25f9 b9bf
000002c0: d587 2de4 1535 a9bf ce50 723d 628c c33f
000002d0: a697 bc62 b09b e03f bd0f bea5 8d4e b0bf
000002e0: 9968 43d4 2afd d13f 3fc9 463d e888 cf3f
000002f0: ab24 2f23 d008 dfbf 5fee 66fd a4d2 c7bf
00000300: ac2b 0163 8e4a a83f 7420 8f90 74d0 e03f
00000310: beb9 2f98 1f6e a4bf 3ca1 0b5e aeb5 f13f
00000320: f6e4 f23c a4b2 d53f 17e1 b0fc d5ff a63f
00000330: 6a48 cb89 fd2e ba3f 854f 39ec f5e3 d83f
00000340: ad50 e535 ee0b d4bf cb89 01bf 2a3a a23f
00000350: 8ec0 4d50 dbef a9bf e51b 2e46 3746 d83f
00000360: 402a 6013 3ab6 b1bf e05d d623 c717 dcbf
00000370: 76a0 6506 57c2 d3bf 5fb2 5e8c 7973 c63f
00000380: 8edc 1075 0d5c a8bf 9b9c 786c 47d3 c63f
00000390: a3ec b0cd 592a c93f e5d1 4e1e 4a43 d63f
000003a0: e4e4 5f73 b140 c13f c2b9 a5bb 4c35 e0bf
000003b0: a550 be39 a30e c63f e934 1aee c95b d13f
000003c0: 01d4 345b e475 ba3f 5460 d1f2 bfee e03f
000003d0: f9d5 3bcd 5271 9a3f 8b5d 28b2 4d96 e5bf
000003e0: 8ade 8397 e198 d1bf 9688 e2f4 535d d8bf
000003f0: c421 0ae6 54a5 c6bf b459 c01d 02d5 cebf
00000400: 68c7 68a9 f997 98bf ff28 f0d3 e42b c6bf
00000410: 5440 31e3 a566 c0bf 3c0d 8df2 3e47 d7bf
00000420: 3009 0a81 c6dd dcbf 0467 2f44 d0fb 9b3f
00000430: 279a eab8 aacb e7bf 834c 8639 e5b5 abbf
00000440: c0dd b153 33a6 873f a345 a271 c81b b1bf
00000450: e6f6 7bf5 1cbd dbbf ea22 937b c92a cebf
00000460: 0416 3bb6 7252 d0bf 358b 687e f09b c13f
00000470: 8e44 cd1d fd3d d2bf 78e0 7fb6 8d1d e33f
00000480: 2a9d 191d 21d5 d63f 23b9 dbf0 2fd7 d6bf
00000490: 1f02 bead 66a8 cbbf 4670 81db 9fa2 e0bf
000004a0: 1c2a e4e6 4909 c83f f30d ba60 1e44 d7bf
000004b0: 2bfb 1964 8338 d13f ac01 58c0 3ed3 ddbf
000004c0: f1f4 7c52 4f83 d5bf 2b1a 022d 9532 bdbf
000004d0: 80de 1fa5 d6b6 cdbf fe65 b72a 6dec 803f
000004e0: b749 ffef da5d e03f 9af0 f67c f10b 9abf
000004f0: 92ef a060 0876 e53f 88d0 aec2 ae7e d63f
00000500: 07a3 867e b0d3 d13f 91fb 7366 e3a4 e03f
00000510: 1042 52fb 2093 ca3f 0768 c939 5c7f e03f
00000520: 6ada 34ae f184 e53f 7bc8 1928 de6f c43f
00000530: d284 978d 3427 dcbf 6ac9 0f88 3490 e03f
00000540: 0c70 39e4 8299 c13f 95c0 2430 949e 83bf
00000550: 718f 42cf 242e c1bf 9980 f926 75f1 d63f
00000560: ba65 3e23 d824 e23f 5f83 e769 2989 e8bf
00000570: 4bdb da22 b202 a73f 82a3 8eae 1e91 dcbf
00000580: bfc8 963e 2b10 d53f 95ed 021d 0152 9a3f
00000590: 8873 4326 6f41 d4bf 545c fecd 52ff c1bf
000005a0: 4075 640c a33b d9bf fed1 8931 99c5 d6bf
000005b0: 592e eb14 75a8 b23f a101 a40f dd33 d63f
000005c0: 7091 d3da 927c d1bf 7608 2689 e3bd cdbf
000005d0: 4791 3daf 16aa b9bf d1eb 146d 01c1 e0bf
000005e0: c6e3 6896 920f c43f b5ac 0479 cf78 94bf
000005f0: 02d2 d8ec 223c e6bf e12b b1f6 f6f6 a13f
00000600: 1329 6840 a2c7 c03f d055 74e3 0bc3 c83f
00000610: 232e 0d81 be47 adbf c2d1 6d65 4169 d7bf
00000620: bbe1 acc3 4ae5 d93f a441 7248 ab5c c5bf
00000630: 9122 3f9c abc4 df3f bb92 14b1 0383 95bf
00000640: dab6 c490 3189 c5bf 5b9a 9eb3 c43f c5bf
00000650: 52ad 4b1f d965 bfbf 0e50 735a 9576 e03f
00000660: c765 beea 6a06 e13f af16 36fb 43fc c6bf
00000670: b994 acf7 edd6 c3bf b9d5 2af7 0b00 e0bf
00000680: 3d3e 3f45 378f 833f 9451 bb8e c13e d13f
00000690: 103e e8c3 315d c93f e916 696b f7e6 d6bf
000006a0: 257f 069b 04c3 dabf c6bb a98b 5692 d6bf
000006b0: c59e ff94 1cb5 c23f 8e0d 8736 469b ad3f
000006c0: efef 9d2a 8635 c53f d3ec d193 79de e4bf
000006d0: e700 6d0c 1c54 b5bf 5342 c5cf 3b5b a9bf
000006e0: 8a71 cbd5 391a c0bf e7d7 fa92 8c1b a9bf
000006f0: d87d 32ce dbff c93f fea8 0fae 7ef5 c2bf
00000700: 22f6 4e97 5524 c5bf 6941 41c5 a215 d03f
00000710: 0d4e 231e 1965 d2bf dd6e 53af 0f88 d53f
00000720: 012b 9be4 1b46 e4bf 77b0 046b 3baf a93f
00000730: ebc7 3362 4fac acbf ebd4 1b85 5ab8 bdbf
00000740: 2860 0a5f ac6b d13f fb72 ac2e f492 bd3f
00000750: ea7a 36a8 605d d43f 275d 2b86 2024 c7bf
00000760: b88a 1eca c103 da3f a8dd a3d5 65e0 c53f
00000770: 5724 40a4 781e cd3f 0e35 8e4c 379b ce3f
00000780: 1447 8a56 0515 e4bf ba3c ec71 a5c1 ce3f
00000790: 624c d8ea 589d dabf 2dc3 940f 563d b13f
000007a0: a2d0 2fdd 3fce 9ebf 7d58 0ecd da78 d5bf
000007b0: 5eb9 4064 0d24 d13f c04d 839e 6537 e3bf
000007c0: a783 9ada 7d93 83bf 63b2 0725 b4ee de3f
000007d0: 5e3d 215e b202 c0bf 1761 a083 24f8 a93f
000007e0: 2b5a b02e d09a 643f 95ff 17b6 c7a4 d53f
000007f0: 398d d9e9 ee22 ebbf d3d0 493d 1264 963f

transform.0.head.0.value.lora_B f8 [8, 8]
-0.029817593622160098 0.021287013180903303 0.018471071538598404 0.023653643397178372 0.005992391186519652 0.018505061092468203 0.012144659660617809 -0.010303419156378987
-0.07546778408615919 -0.022442726893511403 0.043567344457209736 0.01719034684669819 -0.008245707055479817 -0.04029965801328795 -0.01747702633435782 -0.08721184050947721
-0.05049021877766697 0.00509392846438351 -0.04638026006106966 0.028357340960661972 -0.009761990815978344 -0.0023316018871268334 0.024380479076427954 -0.03152918303452051
0.03920854744244461 -0.09602200491897696 -0.060878905908737485 0.00880463130906772 0.03411583712946171 0.01995592589356153 -0.0010083186546344285 -0.043263122520640386
-0.03516103718220084 0.02211769219709659 -0.05907974211621172 0.040655108509734625 -0.02148352536121575 -0.0028080447212734646 0.00034333284647020796 -0.0402192360384922
-0.05402159332772044 -0.0031435691970091027 0.06260832284189924 0.005195820085114124 0.01129325561322591 -0.0412899882949777 -0.02842331147454615 -0.010614397860991812
0.06361968634399516 -0.00817401444836395 0.05172519929737744 -0.06589980683624877 0.01785278385103377 0.021957120779975532 -0.03459915153601368 0.056781899713011334
-0.07732841619105309 -0.02612449023055739 0.07796709259328269 -0.013441169457840458 0.016403795898746742 -0.059010068274182766 -0.0301330217080517 -0.04964817199176608
00000000: 4675 cfd5 8088 9ebf bd18 c445 43cc 953f
00000010: 63af b8a0 14ea 923f c7db 4923 a938 983f
00000020: 262c bc42 7a8b 783f 047f cfa0 fdf2 923f
00000030: eed9 81a0 4cdf 883f 384f 8282 f519 85bf
00000040: 7938 8d50 db51 b3bf f1aa 29e8 39fb 96bf
00000050: 7a0c 3c7f 754e a63f e3c9 0da6 589a 913f
00000060: 96e0 1511 20e3 80bf 4103 6a22 28a2 a4bf
00000070: 8e4b 2662 7fe5 91bf 8bea cfe2 8353 b6bf
00000080: 79ff d59c dad9 a9bf 8a61 9a02 5fdd 743f
00000090: 81d7 4848 27bf a7bf d739 1cf0 b409 9d3f
000000a0: 2349 633a 18fe 83bf 81b1 473b b919 63bf
000000b0: c720 2d41 32f7 983f 5777 01d4 9724 a0bf
000000c0: 7f59 fa89 2413 a43f 89c7 d2ea e594 b8bf
000000d0: 34e0 c91b 852b afbf fecd 349c 2908 823f
000000e0: 894f 7e89 a177 a13f 3c07 4c84 536f 943f
000000f0: 5489 51e9 3185 50bf 05af b280 9526 a6bf
00000100: fbfc 94a1 a000 a2bf e21c 9932 05a6 963f
00000110: 8390 7d30 b33f aebf 7ee5 ed12 bfd0 a43f
00000120: f71b 51fb c6ff 95bf ba5d cb87 e500 67bf
00000130: 7c34 e458 2b80 363f f02d e99e 9d97 a4bf
00000140: 48a1 3de1 b7a8 abbf 218f 9adc 8ac0 69bf
00000150: d238 105b 1907 b03f 1ca4 7655 3648 753f
00000160: fc81 311c eb20 873f 3720 c21a f623 a5bf
00000170: 65a6 e824 001b 9dbf 7502 705d 00bd 85bf
00000180: 47af 3a38 6149 b03f 78ae dca5 89bd 80bf
00000190: b6fe b8ae b97b aa3f daa5 2c4b cfde b0bf
000001a0: 6c88 210b 0048 923f b242 a86e ed7b 963f
000001b0: d10f a2e0 fab6 a1bf 5755 8b64 8412 ad3f
000001c0: 9590 978a cbcb b3bf 9bdf a8dc 60c0 9abf
000001d0: ce33 dac0 a6f5 b33f fd6c ee39 0b87 8bbf
000001e0: 6058 a91b 28cc 903f a1a3 be52 9136 aebf
000001f0: 2d1e 10db 30db 9ebf 008a 0536 7c6b a9bf

transform.0.head.1.query.lora_A f8 [64, 8]
0.3841642307444783 -0.1682728141021571 -0.2012637378459366 0.11646845416695555 0.12569520991765892 -0.5785348660248382 0.10350577821508926 -0.36454675469886133
-0.00027831234107291813 0.40564687388473925 0.5672221927179696 -0.18400102387112766 0.21038300034230806 0.5965477051479083 0.5608505922539978 -0.4412253010987999
0.01600673148758279 -0.12981436496778573 -0.33643206643613666 0.09863157883517959 -0.19076025969032126 0.07948749240621451 -0.09341632636657737 -0.2147121835421252
0.2039205275131303 -0.020252326847095256 0.036020096213024065 0.03895726759041813 -0.25716755844984535 -0.1975749271154779 -0.3043815462966017 0.31214280174127323
0.43018165493567906 0.10816429442985412 -0.19229427384021036 -0.13184462220728124 -0.1845403875746858 -0.4321569817718635 -0.2971515059482724 0.09349123653661294
-0.21331038789076281 0.5408048302951071 -0.2326382119365311 0.3189863852736479 -0.1990856790893885 -0.1514765995682284 0.07652696843227648 -0.08774671143577949
0.020420622377550036 0.20236307930012212 -0.058127421961458536 0.6387925752679097 -0.7154167290617259 -0.0927235280489277 -0.04856926920575509 0.050688373145848786
-0.44981039752884316 -0.2098494303849334 0.4574124506622381 -0.0539115085549818 -0.19541145045301675 0.2932288321717449 0.27160990365607596 -0.06824517224841495
0.8078898912770113 0.44420739892633515 -0.05694353172404213 -0.32804095952618495 -0.13360692523679488 0.20742316531975946 0.16770976512605296 -0.02323471853860351
0.06537116371152134 0.3549342236401454 -0.15857344960178943 -0.06702570739222789 -0.18987433977991597 0.013526592387850901 0.047263614542397296 0.4438267802805227
0.033258627759998535 -0.2760582847146227 -0.809518502728231 -0.15423340392235996 -0.8117801587801331 -0.26706729709047866 -0.2055715597201733 0.13615605245718843
-0.31763775866683436 0.2225493082632341 -0.08519187889845374 1.030094461220622 0.09444823657890118 0.19367713443049156 -0.19600552181193223 0.4314999866542154
0.004167422272762902 0.7143190978282942 -0.08045250852533845 -0.041301151367707276 -1.0066069632724373 -0.16044022013359527 0.3506996183470519 0.3996327099017194
-0.1773406477629402 0.4721734396826072 -0.6990948352903472 0.4630687732126034 -0.5777903305535238 0.043866765974539756 -0.2043810358685311 0.32553171371264344
-0.19390945648955862 0.17938996600666043 -0.20547043257756795 0.4864798232786577 1.0304557106330112 0.163589702829123 -0.31667347448343963 0.040192661543203605
0.10991039186489455 0.22978775912072572 0.04895065329984757 1.1132809932257295 -0.006482937399855014 -0.06365482328416851 -0.1137458714242536 0.2601958039232152
-0.1029842277494691 -0.03608702331094707 -0.21193917142937882 0.07344958757560975 -0.37556291488548005 -0.5503140068982403 0.6321853024940335 -0.1049097837250974
0.41692900185885534 -0.03049937087690271 -0.04118181605226346 -0.4810826000422192 -0.031101741909818605 -0.18875846318813447 0.25914547783087355 0.004550059455591032
-0.11713811177114104 -0.05194796963456853 -0.3859043259655764 -0.22425305453534894 -0.19109275842041346 0.27613364559047865 0.5441799300915855 0.36873426694412254
0.47204555772477624 0.02034789277914121 0.10245311616364361 -0.01132083489877504 -0.06103504561710511 0.3175921052415659 0.16362737185126483 -0.26818110907875564
-0.028876024257341038 0.23990490927961977 -0.019977117441310206 0.4601967533944398 -0.08559770441286534 0.27638378326105445 -0.10600302762577772 -0.1698550960912778
0.3039728573993621 -0.2921228816167508 0.670411592785292 -0.07121801713479209 0.3853524840421749 0.13571748333127104 0.6771866498088359 -0.40354932169804214
0.18542661695327334 -0.07797989209105899 0.38277668602114656 -0.01863284367868124 0.4915109339127385 0.33245220170339185 -0.3205733851663507 0.025649344013501975
-0.54386972140062 0.03110075964249676 -0.23768520937305823 0.557792898278781 -0.1556563268814272 0.1323984481051844 0.3440097175967791 -0.05613611429944739
0.610689003374942 0.13098685738068053 0.013531499977606394 0.19105173900981262 -0.13160678033215417 0.5655414410171046 -0.3882367545043954 0.2504967395629343
-0.44756222949281665 0.09423650000249222 -0.5881400989464665 -0.31112887787721755 0.08753794002829618 -0.9845162547918279 -0.015703739992007932 -0.6009910660396791
-0.22117404987768358 -0.1330995320980889 -0.31334625132638577 -0.34114135413168944 -0.6312158105268078 0.2841204495297394 0.07390664237094158 -0.07611466576909934
-0.657382400779083 -0.42219892218731625 0.46640748007366134 -0.33905979442352296 -0.16055596380887466 -0.018215949325247036 -0.35723510680408666 0.21516972432879378
0.6002211201227475 -0.17920406850948675 -0.28347048431966626 -0.09967910178502686 -0.3174868673926777 -0.2299091286595086 0.26536232362772083 -0.02190268739929172
0.07179450921790681 0.7869318947055338 -0.30848208578666514 -0.18428417094730737 -0.4366684911907305 -0.6106086904453929 0.28649382402294715 0.002644943716998227
-0.1339704411368605 -0.1191920718045294 -0.3636200821840845 -0.2799681555130602 -0.30417059715955447 -0.5799088365029692 -0.32163186753033307 0.16590103772477846
-0.16133534059660107 0.10030743267944013 -0.02842294578506067 -0.06434047570027782 0.007097346418540495 -0.0018172781307414104 -0.07285711877082687 0.5130307428967092
00000000: 47cb d591 2596 d83f 9cf4 afac f689 c5bf
00000010: 4aa2 f599 02c3 c9bf eba9 a969 e0d0 bd3f
00000020: 081b eed7 c716 c03f 7a84 258d 5b83 e2bf
00000030: 937e 61cc 5a7f ba3f ced9 52e9 bb54 d7bf
00000040: acc9 2967 4e3d 32bf 59d0 434e 1ef6 d93f
00000050: 3740 e927 af26 e23f 427f fa75 588d c7bf
00000060: 8c62 0d85 d4ed ca3f d9a6 8336 eb16 e33f
00000070: 758a f5f0 7cf2 e13f 39c6 980b 093d dcbf
00000080: 5c24 0591 1164 903f 0b38 0bd2 c19d c0bf
00000090: 5ccf aa5c 1a88 d5bf 682f 734d eb3f b93f
000000a0: ef89 5f0a d56a c8bf ad63 53d4 4a59 b43f
000000b0: 682b a8e2 21ea b7bf e5de 2e57 b07b cbbf
000000c0: 8573 535e 111a ca3f ec9a e7a5 06bd 94bf
000000d0: 13a9 77de 3971 a23f 7917 7cfc 34f2 a33f
000000e0: 9f97 48eb 6e75 d0bf 593b 3c9d 224a c9bf
000000f0: 5b63 b6bc fc7a d3bf f346 4acd 25fa d33f
00000100: ee6c d2a2 1888 db3f bacf 2bbb a7b0 bb3f
00000110: dc06 ad48 199d c8bf dd51 44da 48e0 c0bf
00000120: 0f54 b6f8 049f c7bf abaf dcc1 75a8 dbbf
00000130: 9551 00c0 8704 d3bf 8f29 63ab 0aef b73f
00000140: bba6 f139 c14d cbbf b15c 74ee 454e e13f
00000150: df9d 08c4 16c7 cdbf 19a7 27df 456a d43f
00000160: 623b 65b8 a37b c9bf 3a9e a0d0 9563 c3bf
00000170: 21bc ad7a 4597 b33f afbe f287 9176 b6bf
00000180: fd27 1ac5 24e9 943f 4185 c18b 08e7 c93f
00000190: 0888 a6a0 e0c2 adbf 5b81 7620 fd70 e43f
000001a0: e09a ca9f b1e4 e6bf c835 8aa8 babc b7bf
000001b0: fe9e a83d 12de a8bf a8d1 e591 d3f3 a93f
000001c0: 8360 b28c b1c9 dcbf c733 4b9c 58dc cabf
000001d0: 6429 18df 3e46 dd3f ab4b 3e0c 4a9a abbf
000001e0: 33d5 7a0e 3e03 c9bf b000 1bdd 42c4 d23f
000001f0: 603e 5e81 0e62 d13f 4eb5 eafe 8378 b1bf
00000200: 65b8 b9e6 3bda e93f d1e8 c1de e46d dc3f
00000210: 856e f2dc b327 adbf 8a75 3a82 9ffe d4bf
00000220: 99a0 341f 081a c1bf ec96 bd9f d78c ca3f
00000230: acd6 377a 8377 c53f 4830 0591 d7ca 97bf
00000240: f310 3e22 2abc b03f 2cff b008 3eb7 d63f
00000250: 08dc 0682 224c c4bf 97aa 3dc5 9828 b1bf
00000260: 8427 da67 cd4d c8bf f406 757f d4b3 8b3f
00000270: 672d 80bd ef32 a83f 6434 9970 a867 dc3f
00000280: eefb 135d 4607 a13f 04e8 285e f0aa d1bf
00000290: 3e30 d758 93e7 e9bf bc0d e690 ebbd c3bf
000002a0: 5313 3062 1afa e9bf 156c b56e a117 d1bf
000002b0: 8130 fe3a 2b50 cabf fc60 3ac0 8f6d c13f
000002c0: 0bb9 5c52 2d54 d4bf 3677 5ee8 7e7c cc3f
000002d0: 4bef c08d 22cf b5bf a5bb 6b54 447b f03f
000002e0: bd70 4577 c22d b83f 9a54 2e8f 69ca c83f
000002f0: cd42 027d b516 c9bf eadf b91e b29d db3f
00000300: 8316 ece5 db11 713f 7d95 82b9 b3db e63f
00000310: 7e5b ff1c 8998 b4bf 5ea9 d2ac 6c25 a5bf
00000320: 57e5 32e7 0f1b f0bf 20ea 371d 4e89 c4bf
00000330: 184c e1cf dc71 d63f b424 dc12 9593 d93f
00000340: 1f57 322d 19b3 c6bf 0d81 5ef2 1638 de3f
00000350: 4cfc cb21 fc5e e6bf 66ce 2f35 eba2 dd3f
00000360: 6b84 b525 427d e2bf c0de 7b6a b475 a63f
00000370: 452d 7d64 2829 cabf 9039 0df8 82d5 d43f
00000380: 3dff 006b 06d2 c8bf 0f55 9d1a 40f6 c63f
00000390: ad99 1bea da4c cabf 0e53 c944 7c22 df3f
000003a0: d552 9220 bf7c f03f 4485 cee3 81f0 c43f
000003b0: 2cb1 1ad2 6044 d4bf 0709 bced 2194 a43f
000003c0: 45de 8c62 1623 bc3f 0dea 386f af69 cd3f
000003d0: fbd3 145e 0f10 a93f 439b 12bb ffcf f13f
000003e0: 4b8d d441 da8d 7abf 41f8 3cb8 ae4b b0bf
000003f0: 0e7b d20d 731e bdbf 5a06 1a4d 0ca7 d03f
00000400: b512 30a2 2c5d babf 746b dc91 ff79 a2bf
00000410: 11e8 03a1 d220 cbbf 0bbc 8a98 97cd b23f
00000420: 2582 4109 3909 d8bf bf13 c51e 2c9c e1bf
00000430: e328 e7ab dc3a e43f c035 211a 5edb babf
00000440: 9736 effa f6ae da3f 6707 dc21 3a3b 9fbf
00000450: c1ca 4472 c815 a5bf 5fc8 76ac 0eca debf
00000460: 1abc 6791 22d9 9fbf af3d 1ec1 3c29 c8bf
00000470: 3d27 0cea d695 d03f 60e9 e748 15a3 723f
00000480: 2518 2c67 c3fc bdbf 1620 599d ec98 aabf
00000490: 810d da0e a8b2 d8bf 68f3 a0f7 52b4 ccbf
000004a0: 7284 f53d ba75 c8bf 21ba 4874 2cac d13f
000004b0: ee40 5c07 ec69 e13f 6d21 5c9c 5799 d73f
000004c0: 8199 2992 fe35 de3f ca9e 1df8 13d6 943f
000004d0: b8cf 4b0f 5e3a ba3f 17af 3abd 602f 87bf
000004e0: fab0 ab49 fc3f afbf 7ebd 5ed6 6d53 d43f
000004f0: 4f72 6ae1 bdf1 c43f 297d 3919 e129 d1bf
00000500: a08d 4b2f ad91 9dbf 82be c03d 34b5 ce3f
00000510: 52ab 50a8 e174 94bf dc7c 6315 dd73 dd3f
00000520: e3e0 102d bbe9 b5bf 1310 909b 45b0 d13f
00000530: cf00 eeb0 0323 bbbf 54af 62d1 cfbd c5bf
00000540: 40b9 5992 4a74 d33f 2a43 bd2b 24b2 d2bf
00000550: 3ce8 3b03 0374 e53f b4da 7a0e 583b b2bf
00000560: 282f 1977 9da9 d83f 2e9d 33c4 305f c13f
00000570: a8ef 4656 83ab e53f 5c07 c188 c0d3 d9bf
00000580: 2ca5 cf33 0fbc c73f 4cd6 467e 7df6 b3bf
00000590: 1474 08c9 697f d83f 62f8 ecf8 7c14 93bf
000005a0: 3606 b246 ea74 df3f 2227 7399 e546 d53f
000005b0: ae7a 503b 4684 d4bf 4ab0 ce56 d243 9a3f
000005c0: cf68 5679 6167 e1bf f15d 2ea6 e0d8 9f3f
000005d0: 7b06 800c 786c cebf a68c 017e 70d9 e13f
000005e0: fd83 afe8 8bec c3bf e392 53ae 6ef2 c03f
000005f0: 3066 a555 4104 d63f 5bcf 146e dfbd acbf
00000600: f1b5 30aa c38a e33f 89f2 5366 2dc4 c03f
00000610: 0408 f52e 67b6 8b3f ab0e 7225 6274 c83f
00000620: c2ae bab0 7dd8 c0bf 0b70 365d ea18 e23f
00000630: 57e6 ecf8 ded8 d8bf 0c5b 0b7a 2308 d03f
00000640: f62c a60c dca4 dcbf 3ba7 991d e21f b83f
00000650: f21e 4e2f 0bd2 e2bf 96b9 d418 89e9 d3bf
00000660: 78ab 94ed e268 b63f 01c3 963b 2881 efbf
00000670: 8522 c326 a414 90bf e083 ba9d 513b e3bf
00000680: 3a69 7967 6e4f ccbf 64b2 bccc 6709 c1bf
00000690: 7358 716f dd0d d4bf bcc2 d38b 42d5 d5bf
000006a0: e2c8 dd7f eb32 e4bf 21b9 b689 072f d23f
000006b0: 90bb f0b3 8beb b23f 9a68 3930 407c b3bf
000006c0: f1fc 09d1 4609 e5bf badc cca0 4e05 dbbf
000006d0: 65ac 61c2 9ed9 dd3f 3c00 1cda 27b3 d5bf
000006e0: f651 de0a 198d c4bf 9959 78aa 33a7 92bf
000006f0: 4039 2da3 f0dc d6bf c06e 8a78 ae8a cb3f
00000700: 4776 29ec 0235 e33f 4b79 c7ae 28f0 c6bf
00000710: 1c31 e262 6124 d2bf 8be7 42d2 9184 b9bf
00000720: 451b 1770 b451 d4bf 337d 528e a96d cdbf
00000730: 9295 6441 b2fb d03f a941 4c78 a86d 96bf
00000740: 4c8f 1ffd 1f61 b23f 1111 fecb 8b2e e93f
00000750: 0ac2 76a5 2bbe d3bf f2cf b1ab 9f96 c7bf
00000760: 0ae7 3666 60f2 dbbf 24b9 833c 1b8a e3bf
00000770: 75cf 2b31 ea55 d23f 4de2 7458 d9aa 653f
00000780: 0f21 a883 f125 c1bf c0ca 5722 5f83 bebf
00000790: 0091 492a 8d45 d7bf fc66 f68d ffea d1bf
000007a0: fb1f cdf3 8777 d3bf 1c22 eef9 9c8e e2bf
000007b0: 533a 19d4 9d95 d4bf d73f b3c5 3e3c c53f
000007c0: 0595 c6ed a2a6 c4bf 1b67 e776 bfad b93f
000007d0: c348 699a e71a 9dbf 3a18 f10e 9e78 b0bf
000007e0: 4ca2 186c 1b12 7d3f 45ce e988 37c6 5dbf
000007f0: fec7 669e c3a6 b2bf b9af d272 bf6a e03f

transform.0.head.1.query.lora_B f8 [8, 8]
0.0007001881213807839 0.0031692402133214267 -0.0014783963753837131 -0.003325620715203658 0.0033818355424218988 0.0011159885251056446 0.0008387752009554786 0.0038488240098124957
0.0012218679521556859 -0.0005802875534399498 0.0027578007379539787 0.0055147266975130805 -0.002006531041663738 -0.0021421509622110246 0.0040092368186950365 0.0013311651736469892
-0.0016173141419571905 0.0016005678571766999 -0.0013426756816285852 -0.0008506995333504982 -0.0002182705109612644 0.00238496178652815 0.0013538649859725681 0.0025812344492111955
-0.007168426158432307 -0.00014963049385532202 0.0015821978216951174 0.0001779560276097158 0.003961735901113728 0.0021117821736616146 0.0006828326310133749 -0.002683469010284416
0.02286623682006636 -0.0052012000929996735 0.0024788341686750137 0.00814170469866901 -0.020055666857851037 -0.005542259197635697 -0.007648465900255806 -0.003002497157248133
0.008112280360467943 -0.001297851526212706 -0.0027061454228999005 0.0009758474986406596 -0.007263770926153437 0.0029289870633750505 -0.004410274669354359 0.0010367318617641099
0.005430067359823372 0.0015441315239023928 -0.0005002813047524756 0.0015111135508234469 -0.007041758623332667 0.0005767227730296752 0.001282209374647254 -0.004084113417097012
-0.011073933332645409 0.0017125049568656135 0.0014509386115301984 -0.0033269676057950206 0.01282162599117229 -0.0006251812984477032 0.003333389576558228 0.00031035333887929184
00000000: f85d 8b8a 9af1 463f f063 38e2 60f6 693f
00000010: ee8f 4c05 d838 58bf 980d be06 553e 6bbf
00000020: 20cf c321 39b4 6b3f 1f5e f48d cb48 523f
00000030: a735 4507 287c 4b3f 59ac 01a8 9187 6f3f
00000040: 3121 40b9 e204 543f 28ff 3a08 ce03 43bf
00000050: 3c07 4fff 8697 663f 09c2 fe2c 9c96 763f
00000060: 4ab0 7926 0070 60bf d7e1 6c8a 6a8c 61bf
00000070: 0a9b 4a50 fd6b 703f a694 bab8 4fcf 553f
00000080: bf4d 36d6 817f 5abf b7a8 80a6 4439 5a3f
00000090: b117 1209 97ff 55bf 78cc 5456 2fe0 4bbf
000000a0: c8e3 9a69 f19b 2cbf 19da 029c a089 633f
000000b0: 1400 a175 852e 563f db8e 5db1 3d25 653f
000000c0: a7cc a0be a35c 7dbf ee42 ba27 c49c 23bf
000000d0: 2a52 99f9 37ec 593f 65ee 2da3 3653 273f
000000e0: 1a3c 1762 2e3a 703f 35ac e86b ba4c 613f
000000f0: 01e2 cfe8 0360 463f 57b2 7274 a4fb 65bf
00000100: 1892 4c2d 3f6a 973f b848 ca84 da4d 75bf
00000110: 172c f9f5 7d4e 643f 2fd7 501b 99ac 803f
00000120: 2f09 0405 7989 94bf d42e ffdf 7ab3 76bf
00000130: feab 7f6e ff53 7fbf 5547 1863 b198 68bf
00000140: 36e8 c0d6 2b9d 803f 17a7 0c77 9543 55bf
00000150: bbcc ddc2 322b 66bf 0b84 d88b 00fa 4f3f
00000160: 43e9 2ca9 9dc0 7dbf c329 b9f4 87fe 673f
00000170: d441 8a17 8210 72bf dd4f 395c 5efc 503f
00000180: 3bb9 9b9b d63d 763f 6927 5699 8e4c 593f
00000190: 66fd ddeb a964 40bf ee4b 01d2 11c2 583f
000001a0: fa89 e5af d1d7 7cbf 3284 79b9 e6e5 423f
000001b0: 52c1 2ad5 f901 553f f210 f4d8 80ba 70bf
000001c0: caad 032c eead 86bf 6ba8 2c32 c40e 5c3f
000001d0: 7743 a478 adc5 573f 55c8 f921 2841 6bbf
000001e0: b24f 8282 3942 8a3f a240 8e9d 667c 44bf
000001f0: aaa8 eae6 9f4e 6b3f 7d1f d170 dd56 343f
