core/models/lora_weights.npz (npz, 477648 bytes, 192 tensors)

transform.0.head.0.query.lora_A f8 [64, 8]
0	0x3ff29d576e08593b	1.1634134576939477
1	0xbfba1ef2554f9a62	-0.10203470785891391
2	0x3fd071d2e2cec64e	0.2569472517890049
3	0x3fde322ead8d78d1	0.471812886700616
4	0x3fdbdbbdbd2052b4	0.4352869364677574
5	0xbfcbecd9e8ee12e9	-0.21816562531980502
6	0xbfa37956e2b695f6	-0.03803512113089973
7	0x3fd62f490a3a9a12	0.3466360664264424
8	0x3fbe320a53c91ea1	0.11795105500743343
9	0xbfdcdd4a1842d515	-0.45100643510098
10	0xbfe055f2d641b57f	-0.5104917702389428
11	0x3fbc00706d2ec9cd	0.1093817011413087
12	0x3fdecd7fa1cbe75e	0.48129263687552803
13	0x3fb6e5c56b9659b5	0.08944352985995503
14	0x3fe6e5008896cbfb	0.7154543559794314
15	0x3fb77e43c978913e	0.0917703978416897
16	0xbfd80690569cd733	-0.3754006238772149
17	0x3fc472c353a379e1	0.15975228866496052
18	0x3f789ca3fd2b8c31	0.006008759099787973
19	0x3fe3831aebaca051	0.6097540476812445
20	0x3fc5a11e30f7ff00	0.16897942915965558
21	0xbfc4f36fd683b366	-0.16367910360659294
22	0x3fc5d5e700af6336	0.1705902818055393
23	0x3fce3b0776770504	0.23617642673892913
24	0x3fe2c3871d9d17d2	0.5863681391135691
25	0xbfe6dbed055b19d1	-0.7143464188200658
26	0x3fd0e2b22f71f7dc	0.263836428006355
27	0xbfb0658cfb30de13	-0.06404954083051732
28	0x3fe2c000b1457640	0.5859378301935934
29	0x3fd675d4b8d8b893	0.35094183017179964
30	0x3fd289b941e4a0bd	0.28965598521109454
31	0x3fd92b3c52e90c3e	0.39326389404977025
32	0x3f93575c0a564080	0.01888793767062724
33	0xbfe8c2b53725d9d6	-0.7737680508715197
34	0xbfc509be8961915a	-0.16435987194121077
35	0xbfd974a5ec96466d	-0.397744637529377
36	0xbfd4e5edc5c386b4	-0.3265337401663644
37	0x3fcef6ee654dc48e	0.2419107432029119
38	0x3fd1509c60d83a46	0.27054509599193854
39	0x3fcf359b7b875a6c	0.24382346660304977
40	0x3fb0136428a72c02	0.06279588692193275
41	0x3fdf4912133f2910	0.48883487586557894
42	0xbfc030f5a1c950e8	-0.12649412536359894
43	0x3fd4cd9cf5f8f02f	0.3250496294092526
44	0xbfd535010510ebb2	-0.33136010641799907
45	0xbf8e201fa8176b47	-0.01470970851635446
46	0xbfe2264455bcaa74	-0.5671712564993201
47	0x3fe0c4ebbd5c606d	0.5240381906942396
48	0xbfdc7928ef3c5c2e	-0.4448950134550981
49	0xbfc5827f31b3445b	-0.16804494787951083
50	0x3fe38f611199d6e6	0.6112523406761425
51	0xbfe986dfcd1beada	-0.7977141386066606
52	0xbfdd38cda7b0faf0	-0.4565920007334361
53	0xbfd27692de165ab1	-0.28848716438498473
54	0x3fb8058f82affb8c	0.0938348478375543
55	0x3fcfc59d8f9570aa	0.2482182456104785
56	0x3fc9f1b272667cce	0.2026885088534755
57	0x3fd4872fee984667	0.3207511739757138
58	0x3fd86303bc33e2d4	0.3810433710018917
59	0x3fbe5b35aae785ae	0.11857924864263822
60	0xbfc6bf2b56f7139b	-0.17770902391762608
61	0x3fe12316537bfd61	0.5355331068566721
62	0xbfca94cf6f86aa81	-0.20766632981879599
63	0x3fdc291a05f3d3ce	0.4400086458329583
64	0x3fbdc3e6c3773b30	0.1162704684459015
65	0x3fc6648b4d903eb3	0.17494336402204666
66	0xbfcfe969884d4de0	-0.24931067614907843
67	0x3f85f2c6e2f460ca	0.01071696643934707
68	0xbf78dc90bc8e486e	-0.0060697225352602645
69	0xbfb9358151536b0f	-0.09847267375463907
70	0x3fda8ccc96cc76ff	0.4148436997073616
71	0x3fdb5476ccfbcd33	0.42703027742318794
72	0xbfd777df78df1ec2	-0.36669146350730497
73	0xbf4a638abaf737ac	-0.0008053233522617906
74	0x3fd5f979a8436a6b	0.3433517592617707
75	0x3fc4ca55b9fee0cc	0.16242477018182055
76	0xbfb92c0bdd545bb0	-0.09832834390213807
77	0x3fa2ac17b952ef4b	0.03646921288733881
78	0xbfd7c4015bf69ed3	-0.3713382146911332
79	0xbfc07af78ebf08e5	-0.12875265569716202
80	0xbfb530b01a1702c6	-0.08277416836700544
81	0x3fb154fbcaf909a2	0.06770299630537704
82	0xbfd981604c1cef9d	-0.39852149422562794
83	0x3fbb70397d85894d	0.10718116106503324
84	0xbfd37e863b852907	-0.3045974332095657
85	0x3fbfae92a773476b	0.12375752056257532
86	0xbfc6d1eab9329fe2	-0.17828115504130354
87	0x3fa4843ed50105df	0.04007145261904176
88	0x3fc512b52df55aa2	0.164633414688713
89	0x3fa5690de49a3c80	0.04181712546880423
90	0xbfd64c9de9b55421	-0.34842632124974854
91	0x3feca11b4392a24a	0.8946663207798988
92	0xbf8850883217f7d9	-0.011872352627502568
93	0xbfe59363498802a2	-0.6742416797788631
94	0xbfcefc718495e994	-0.24207896207719826
95	0xbfd7ce9f264d653a	-0.37198618641339787
96	0xbfd4343b79970e24	-0.31568800806073427
97	0x3fcff444abba9b0f	0.24964197526170337
98	0xbfb896921088ce88	-0.09604752448722753
99	0xbfb1139e9d4b4239	-0.06670562114892044
100	0x3fe7cb1349e1d8da	0.7435394709598555
101	0xbfc226625b7da981	-0.1417963930828812
102	0xbfdbf09e62c908a2	-0.4365611996364668
103	0x3fcd24c057712ebd	0.22768406171450364
104	0x3fc31a18fed3a9e0	0.14923393671718
105	0xbfd568067f702ee6	-0.3344742054475617
106	0xbfd63e5abb169197	-0.3475558115990451
107	0xbfd573a8311c94cf	-0.3351841430288233
108	0x3fc667f7113727ac	0.17504776325796223
109	0x3fdc581720ace6bf	0.4428766078086532
110	0x3fe0f58135913b6b	0.5299688383328037
111	0xbfb06b2479ebb4f7	-0.06413486458378147
112	0xbfcd38db61f154a0	-0.22829763681753423
113	0xbfca3fa630572b14	-0.2050674186742404
114	0xbfc0405836dabe9d	-0.12696364096108406
115	0xbfe106515b5b1a66	-0.5320212158483855
116	0xbfa0b509dbdc4985	-0.032631214226188233
117	0xbfcb28a2eda9333f	-0.21217762569940565
118	0xbfcd546d52d9fcde	-0.22913900895580402
119	0x3fa3c8797ce005cc	0.03863887452463252
120	0x3fd977cc31f8f980	0.3979368675244572
121	0xbf9fce953aea2b4e	-0.03106148883902487
122	0x3fc3b326f4f5ce8c	0.15390479050585204
123	0x3fb73411a4a6e771	0.0906382586462351
124	0xbfcdaa2736f86565	-0.23175516304108182
125	0xbfe1cb83a21cb108	-0.5560930410624971
126	0x3fd4e50e8c8ba4c0	0.32648051953453816
127	0x3fe47540e4b8b594	0.639313170167656
128	0xbfdc72f0230540d0	-0.4445152608868854
129	0x3fda953d9fdbe13d	0.41535893069478275
130	0xbfbc7db09483d4f5	-0.11129287362912861
131	0x3fc6b6e5b20b7f36	0.17745658105467904
132	0xbfdbc0fc0b95604b	-0.43365384226990916
133	0x3fd4e38ec21616f5	0.32638901666392367
134	0x3fd3af3390e6c4db	0.30756844664126753
135	0x3f6dbe6bda1a157c	0.003630839012489671
136	0xbfe0e645f9d6725a	-0.5281095389978632
137	0xbfd7c668434dd065	-0.3714848191514249
138	0xbfbd6daa5e9683bd	-0.11495461282039705
139	0x3face868d11f0505	0.056460643317686666
140	0xbfc46d4587d6c8ab	-0.15958470471156735
141	0xbfd705f015df7ac2	-0.3597374166110222
142	0xbfee1f35d89d1513	-0.9413098555311613
143	0x3fd7ae6d39246332	0.3700211580303857
144	0xbfc7f73273559c5a	-0.18723135596812562
145	0xbfcd0a4974cee7ee	-0.2268764324524563
146	0x3fdffc72648ec1b7	0.4997831327446209
147	0x3fe041f8f995a50a	0.5080532908151849
148	0xbfc1254e05dd2253	-0.13395095144575694
149	0x3fe8ab28eaea4f12	0.7708935344876144
150	0x3fe4120b171d8f04	0.6272025538896462
151	0xbfca9c341128bea0	-0.20789194906091257
152	0xbfca082a7ea5bd8a	-0.20337420638996334
153	0xbfd67d88bde7aa15	-0.35141199632076453
154	0x3fb55d59967441a6	0.08345565722652867
155	0xbff643e19c76dbc0	-1.3915725814710953
156	0xbfbcf85b4ff4e85c	-0.11316462232653762
157	0x3fddd174be132f81	0.4659091812325116
158	0xbf8264f07b13f0cd	-0.008981589084662645
159	0x3fe093eca8e74e16	0.5180571841141866
160	0x3fbb5b3a88d3b9ef	0.10686078873161596
161	0xbfca5e24948b93f9	-0.20599801304993529
162	0xbfc3eedf25cf2b15	-0.15572728487162438
163	0xbfe978423f9aa68e	-0.795930027224317
164	0x3fc244c9eea6e98b	0.14272426751069775
165	0xbfc9fca21c07dbe8	-0.20302225464521872
166	0x3fca9fa01a789172	0.20799638073470877
167	0x3fcea209a387d055	0.23931999668968965
168	0x3fc6d499b4986eb4	0.17836304968010597
169	0x3fbb2fb2ac27151f	0.10619656279512356
170	0xbfe1de885ad369ee	-0.5584146284048168
171	0x3fce7681fdd75b6a	0.23799157042114
172	0xbfc72189212b9116	-0.18071092719686338
173	0xbfd3375b599c8066	-0.30025371314150673
174	0xbfdab7c542f7b6b0	-0.41746646442229984
175	0xbfd09afdc3c4944f	-0.2594599162860662
176	0x3fe9a2c3f422d3e5	0.801118828609671
177	0xbfd2bef57363ce1d	-0.2929051997045649
178	0xbfc5268f2c4455f9	-0.16523923551055456
179	0x3fdbb6da6735f562	0.4330354698102693
180	0xbfbe755ece9cdda0	-0.11897842926270252
181	0xbfb9f6d31af33280	-0.10142249496420597
182	0x3fe43b435e099f11	0.6322342716857482
183	0x3fbaca1ae5a93441	0.1046463785834968
184	0x3fb9fac78060eb9b	0.10148283848040622
185	0x3fe121cb43a19dcb	0.5353752442287542
186	0x3fceabeabf1b20b1	0.23962148982378076
187	0xbfd4a630a8d704d7	-0.32264343727372363
188	0xbfca5d8579701ce7	-0.2059790461500832
189	0xbfe2093b3e4e32ff	-0.5636268822578073
190	0xbfc01f4bcaa19f62	-0.12595507997616112
191	0xbfc952ad0f552057	-0.19783557175310548
192	0xbfd223d2e25f974d	-0.2834365091970213
193	0xbfebceb505f7f349	-0.8689828030179366
194	0x3fd496c62469237a	0.3217025142262667
195	0xbfd719c4ac3eae12	-0.3609477693632651
196	0x3fd3563d9b90e509	0.302138711852948
197	0xbfc5a34d2cb432e5	-0.16904606516654677
198	0xbfc600b3b6283e43	-0.17189642328638585
199	0xbfc24c357ff057e6	-0.1429507136060117
200	0xbfc3fe46fe0a2c60	-0.15619742779049073
201	0xbfb87d6a5a06cb3c	-0.09566368768609562
202	0x3fe130d181b17c59	0.5372092755386674
203	0x3fe3279e04ba8456	0.598586091266166
204	0x3fe32bea4cf962e5	0.5991107467080751
205	0x3f664322e72c8f74	0.002717559976547374
206	0xbfbfca961bc6e8bb	-0.12418497255467546
207	0x3fea1ab6824adca4	0.8157608551763542
208	0x3fcbf644cea347e9	0.21845302667367086
209	0xbfd795ecc06e85d9	-0.36852568428193205
210	0xbfc28002b3fd4177	-0.144531572232619
211	0xbfaac8738c0c5fe2	-0.05231057247709693
212	0x3fd16c807caebeb4	0.2722474305728426
213	0x3fb9987bdfcd22bb	0.09998296941661071
214	0xbfb85574275198bd	-0.09505392036371325
215	0xbfad6b1a416a00ca	-0.05745775269042637
216	0x3fc767cb9f904cb4	0.18285508433527797
217	0xbfd08a49f08d53d1	-0.25844048015033844
218	0x3fc40cf5fd2bd7b5	0.15664553510549487
219	0xbf8bf4552218d24a	-0.013649621108109095
220	0xbfdd43485f797eba	-0.45723161052408623
221	0xbfd86d43956c6e16	-0.38166894523757955
222	0x3fdb1a074fcb4689	0.42346365730654917
223	0x3fe3b64b04f18b0f	0.6160025688699039
224	0x3fa0dd0d675e4bf7	0.03293649565525663
225	0xbf78a560df0f725a	-0.006017092136030822
226	0xbfdcea49203917f3	-0.45179966112880193
227	0xbfa99359f6a8607e	-0.049952327117524384
228	0x3fc873cbfcc249fb	0.19103383867020782
229	0x3fe5b55a20008610	0.6783877015151933
230	0xbfdc84b69138af12	-0.4456001680543845
231	0xbfc088fedeef2ea4	-0.12918077359642155
232	0x3f7dbfb43c00c72a	0.007262901344846454
233	0xbfc5c06754e7ce22	-0.16993419309402308
234	0x3fe5a37d1d4aac7f	0.6762071201423082
235	0xbfd09daaae9bff3d	-0.2596232133073391
236	0x3fce225a4ac371ba	0.23542336130675584
237	0xbfa1059163d5d30f	-0.03324560493175543
238	0xbf90f5554726ba2b	-0.016560871570329077
239	0x3fb67d1dc5c9a814	0.08784662321855335
240	0x3fd8c18a76bf86dd	0.3868127975130003
241	0x3fcff4841c0934d6	0.24964953774398307
242	0xbfe78b8498f83668	-0.7357810008704293
243	0x3fb5b512f67e7f62	0.08479422109530568
244	0x3fb6adb398bfc379	0.08858797530389308
245	0xbfe0727fe875ea42	-0.5139770069357115
246	0xbfdcda1468057f24	-0.45081052931162646
247	0xbfe001bd01781a0f	-0.5002121952719011
248	0xbfdc438654f9abe3	-0.44162138269774526
249	0x3fcd5262a8d22c48	0.22907670253002466
250	0xbfe5ac2b54b7fc47	-0.6772667555486657
251	0x3fc7d476bc628425	0.1861713809821889
252	0xbfcec7ab09ff5e2a	-0.24046838749085114
253	0xbfaf4a3d3f5d3515	-0.06111327551352922
254	0xbfd121195883fc00	-0.26764520305727046
255	0x3fbf20ce57c83746	0.12159433024518504

transform.0.head.0.query.lora_B f8 [8, 8]
0	0xbf7e9e272547c0c3	-0.007475045120813375
1	0x3f9bcbd7c35cfa4c	0.027144786166213117
2	0xbf91889ce1649e6d	-0.017122699028873024
3	0xbf8173d2f10f3ad4	-0.008521697980453359
4	0x3f60a58a56c0f6ac	0.0020320608073508186
5	0x3f96b890059f1ef2	0.022188425391305118
6	0xbf62ac32d77b181a	-0.002279376316297832
7	0xbf6d207f71360f12	-0.003555535231216108
8	0x3f70741110c338b1	0.004016939794565897
9	0x3f665b64a116cf25	0.0027291264929888586
10	0xbf80bba659fc1ca8	-0.008170413609617747
11	0xbf9203341a397d4b	-0.01759034547864972
12	0xbf87c971f1f56871	-0.011614694782725562
13	0xbf730e3547e33c26	-0.004652221801918299
14	0xbf62be57d2348c97	-0.0022880282646312133
15	0xbf938068fa32f16a	-0.01904453303426249
16	0xbf7ae60c253e6267	-0.006567046588224024
17	0xbf7efc4930f62d3d	-0.00756481733641162
18	0x3f8096dd125caf53	0.008100249407639792
19	0x3f98e8ee3b9fef7c	0.02432605971260625
20	0xbf737bc7b4cace14	-0.004756717779560233
21	0x3f8f13fb03a50c2f	0.015174828575828496
22	0xbf7af845a4855c53	-0.006584426919594116
23	0x3f98c7bd46bcb8fe	0.024199445192771833
24	0xbf8d9a0370b63fd8	-0.014453913571543284
25	0x3fa328620b40b02c	0.03741747271882931
26	0xbfa24d40813765e0	-0.03574563577030765
27	0xbf8dd505a82837c3	-0.0145664636557078
28	0xbf5092815984d96a	-0.001011492078828969
29	0x3facd96c42872a83	0.05634630500897677
30	0xbf94eaad89107d28	-0.02042647503924147
31	0x3f8df994400c7c8d	0.01463619060956336
32	0x3f9a6e2babec006c	0.025810892456320664
33	0xbfb0cb61d840de59	-0.06560336618064734
34	0x3fa831b5b2ba9030	0.047254255359149844
35	0x3f8074cf69493167	0.00803529777581309
36	0x3f86518535402650	0.01089767521627319
37	0xbfb90ca6cc72275a	-0.09784929744105622
38	0x3f98ae80a5ffc77d	0.02410317433527308
39	0xbfa58dea8e89d5df	-0.04209835996600097
40	0x3f8b2d04016abd8c	0.013269454282037761
41	0xbf932a91152f2cac	-0.018717066686616476
42	0x3f951a6d0b2bb3ab	0.020608619505697295
43	0x3f5afb2ad5c3705c	0.0016467970190694658
44	0x3f758894f29ee545	0.005257207705591076
45	0xbfa21824426c3cef	-0.03534043608498815
46	0x3f87f525a5873519	0.011698049654024477
47	0xbf92420e60677a2c	-0.01783010924725141
48	0xbfa028c2716e2f15	-0.03156097063683042
49	0x3fb277514a364623	0.07213314115349383
50	0xbfa51083891e09c8	-0.041141615379291674
51	0xbfa032fa64dc94ad	-0.031638932049000125
52	0x3f536613d95e2b18	0.0011840051497268907
53	0x3fb3eaaf420dc60d	0.07779975283281022
54	0xbf8791b12a3d4118	-0.011508354283848152
55	0xbf37dd121cc2b2c7	-0.00036412899204200624
56	0xbf8723912b7a9264	-0.011298307551734506
57	0x3fa72c3ea9447d72	0.04525943580869808
58	0xbfa41f2fa775c465	-0.039300431434534024
59	0xbf9a6b5053ad66f5	-0.02579999457098033
60	0x3f4d0a1660d349bf	0.0008862122791931034
61	0x3fa8ce1d8dfc2db2	0.048447536070024624
62	0xbf8ac4807db5fcdc	-0.013070110165016073
63	0xbf6d593197059c13	-0.0035825699380214264

transform.0.head.0.value.lora_A f8 [64, 8]
0	0x3faba0908246e7a4	0.05395938482565946
1	0x3fe3396cb58a5bbd	0.6007598443710475
2	0xbfd48e0a860eba0e	-0.3211695012240917
3	0xbfe994da3ddef15c	-0.7994204719939648
4	0x3f90a0f737ed433f	0.016239035404683518
5	0xbfcf294b9c88aebc	-0.24344773429162625
6	0x3fd3333ae612fc91	0.30000183551960286
7	0x3f6addd13f9daf64	0.0032795988926660902
8	0x3fe3296dc25a4c4e	0.598807220072908
9	0x3fe752b9545d576e	0.7288481376406091
10	0xbfb22de99c70add1	-0.0710130698141065
11	0x3fdc4ce9dbf1a04d	0.4421944282426054
12	0xbfdbbd3dc129fbdf	-0.43342536796256853
13	0xbfc5f27059d7c4fb	-0.1714611471830166
14	0xbfa3f87d5210fc8e	-0.03900519968782944
15	0xbfd94ed96f55780e	-0.3954375827069051
16	0xbfe2fcf66017fd36	-0.593379199679396
17	0xbfe1e75cef949a94	-0.5594925574594805
18	0x3fb883b769a9f312	0.09575983361896714
19	0xbfd99fdb5919bdc0	-0.40038188649392836
20	0xbfe1cd7c86fbab9c	-0.55633379329571
21	0xbfa70777435d17fc	-0.04497883508024356
22	0x3f86106df3e4e8fe	0.010773524289664934
23	0xbfb10eed39ed2c42	-0.06663401283474094
24	0x3fc45a6ea1d46264	0.1590097704108927
25	0xbfc907c74ced4472	-0.19554988151734026
26	0x3fd8ac580aa367f7	0.38551903761765466
27	0xbf61a7e45b100345	-0.0021552524635811998
28	0xbfe549f11124428b	-0.6652760824964202
29	0x3fc57dbcbc9d03b5	0.16789969644199024
30	0x3fb9628064642a31	0.09915926409681998
31	0xbfdaea9d1c08a9db	-0.42056968438796866
32	0xbfd4a27563231518	-0.3224156826148188
33	0x3fc4be60f3e18522	0.16205989750145827
34	0xbfe8373cf7398428	-0.7567429379088297
35	0x3fc8fa0ddafc667d	0.19513104622528835
36	0xbfcd0c28b4338ccb	-0.2269335632218826
37	0x3fbdb93996c1a4d9	0.11610755854202938
38	0xbfad2626326786fe	-0.056931680348283095
39	0x3fce5dec6c9f87b2	0.2372413187395615
40	0x3fb1cfa8d12febb1	0.06957488162144788
41	0xbfd03eeba2230b47	-0.2538403590553355
42	0xbf8aacc79c756c01	-0.013024863683929412
43	0xbfe5361a9214d625	-0.6628544667389106
44	0x3fcf1d6a6d785790	0.2430851969262986
45	0xbfe124ccac2f494e	-0.5357421267492926
46	0x3fde2067d0e1a456	0.47072787664962357
47	0xbfa4aa50e01974d9	-0.04036190734471185
48	0xbfdabfd108f53431	-0.4179575526694093
49	0xbfdb201487b76d04	-0.42383301976742893
50	0xbfc3fa5d4f6087c9	-0.15607801795800771
51	0x3fc9c189596f78d8	0.2012187658974145
52	0x3fdd46216bfb770b	0.4574054293169502
53	0xbfd5fbeaeeb4d3b9	-0.34350083647887747
54	0xbfd8ba94393f287a	-0.38638787832736166
55	0x3fb374576fd2c9c7	0.07599398117125765
56	0xbfdfd7567ecc9a8f	-0.4975181806825412
57	0x3fe2992b034e5799	0.5811972679682526
58	0x3fcad4e0d60d7bcb	0.20962152911940132
59	0xbfd1afdd4ba3114b	-0.27635891329216083
60	0xbfdbae3bc4755eb3	-0.4325093668498809
61	0x3fe1c51d146b8388	0.5553117178752567
62	0xbf9bd8b96a329f35	-0.027193925005718007
63	0xbfc9ed2397c8b6a4	-0.20254940902070928
64	0xbfd24621c870e36a	-0.28553051542581065
65	0x3f961b24d7558a55	0.021587920802071576
66	0xbfc084ab66077cde	-0.12904875261208465
67	0x3fdc27731c04d476	0.43990781532494994
68	0x3fbe47ddfc083469	0.11828410533071722
69	0x3feaf7cb79def72f	0.8427483921329663
70	0x3fbd8871feaf82c9	0.11536323993596932
71	0x3fcd6baa8771bb3d	0.22984820950974863
72	0x3fd7217a0543ca3b	0.3614182521261317
73	0x3fb9192b80595421	0.09804031260985414
74	0xbfdc157626ca678d	-0.4388099078001851
75	0x3fb7843b76d4320e	0.0918614544972984
76	0xbfafea994d1f40f2	-0.06233672205383013
77	0x3fc60da0dcc054d3	0.172290904797285
78	0x3f8650efecddf6b7	0.010896562973126007
79	0x3fa64b2cea92603c	0.043542293199778176
80	0xbfe0f4cd4dc83907	-0.5298830527479205
81	0xbfe2b9240aa8d10f	-0.5851001938049495
82	0xbfe4a70f439d7729	-0.6453930206878101
83	0x3fa4fb5f4e930b84	0.040980318395234
84	0xbfc76821a1149117	-0.18286533704043315
85	0xbfc68d78d34e64f4	-0.1761923820275012
86	0xbfcc0b973d69b26f	-0.21910372255969743
87	0xbfe4f0f7c209b51e	-0.6544150152018664
88	0x3fda5ebf8f3ca11a	0.4120329760358047
89	0x3fdae576ae28dfb6	0.42025534637241024
90	0x3fd6afad6d644358	0.3544725006368501
91	0x3fb39f217da51ea8	0.07664689366822108
92	0xbfd082a1bfb5cdda	-0.2579731342477466
93	0x3fcddfdeb76a4253	0.233394469793455
94	0xbfc0957718c29ea0	-0.12956131657596348
95	0x3fb32c7f61e4c60e	0.07489772930127733
96	0xbfc32db25a65cd2a	-0.1498320523638566
97	0x3fb53f1e23a5c96c	0.08299435015013551
98	0x3fccd9f2d0c881de	0.2254012603234647
99	0x3fc428d384a44709	0.15749591805120414
100	0xbfd54938c43ae129	-0.3325941006001068
101	0xbfe2e0d5331ceede	-0.5899454115201157
102	0x3fcc3b80b1767342	0.22056587853594506
103	0xbfcfe7c9fcdb465c	-0.24926113935957772
104	0xbfb494703524a789	-0.08038998887482597
105	0x3fd5ab08af8902f2	0.3385640825472783
106	0xbfd29d78bba5052e	-0.29086130451840375
107	0x3fdd63dd8363260c	0.4592202933386893
108	0x3fd0c1ca4537dc88	0.26182801017370894
109	0x3fd2e39f3631103d	0.2951429394927379
110	0xbfb854b4376094b8	-0.09504248001083482
111	0xbfd00fe77a412fdd	-0.25097071589402536
112	0xbfd524624157f02e	-0.3303456915016366
113	0xbfde08d83c4b0b97	-0.4692898358154535
114	0x3fc12d5a3f91c286	0.1341965494534813
115	0x3fb3de9cc2be077c	0.07761554483843541
116	0xbfb9952becb8ce83	-0.09993242768615045
117	0x3fd917039cc24044	0.3920296698424901
118	0xbfad56e5ace3ea52	-0.05730359778859352
119	0xbfcdf84d31cf9504	-0.23414006168528811
120	0x3fdde0e1250e3f12	0.4668505536910611
121	0xbfd8ff268b5f0709	-0.3905731545493017
122	0xbfb5e36e530c2084	-0.08550157096408567
123	0xbfcacd35f1ae963f	-0.20938753414991315
124	0xbfc07434305dde92	-0.1285462604680459
125	0xbfbce4929673d6b4	-0.11286274121433842
126	0xbf99d5403143b129	-0.025227549559461302
127	0xbfce05ec0ad5887a	-0.23455572632798632
128	0x3fd7666e55fc23ff	0.3656268920609022
129	0xbfc2ab00e8c6ef87	-0.1458436142546555
130	0x3f93cfa079070e1d	0.019346721064506512
131	0x3fc5ceb4e5d80e89	0.17037068579530892
132	0x3f5b239b1a881190	0.0016564383205387202
133	0x3fb43dfc41c6bd6b	0.07907082181804063
134	0x3fc5e853f7d34cd2	0.17115258789872329
135	0xbfc3d9639dd9e143	-0.15507168967793392
136	0xbfcc540ac090517b	-0.2213147583248761
137	0xbfe7703b96875e7a	-0.7324502887740458
138	0x3fb9bb3578c27e02	0.10051283071742748
139	0x3fb26a650dd3ca0c	0.07193595492916688
140	0x3feb1fdbad6f83ab	0.8476389300741308
141	0xbfe0a499ac2bfacd	-0.5200928080301651
142	0xbfe9d140dfd3c023	-0.8067936298011812
143	0x3fbff65012a4f89b	0.12485218482194897
144	0x3fb89d8719ffd0c5	0.09615368256328612
145	0xbfda9f4e1bfc5f06	-0.41597321255675046
146	0x3fe726040faf5089	0.7233906084388916
147	0x3f9e032e824103e6	0.029309012126990462
148	0xbfb701015510b897	-0.0898590881995197
149	0x3fdf425253b18bb5	0.4884229485816676
150	0x3fa27f94e6e52aff	0.03612962072891967
151	0xbfe8939af42ad185	-0.7680182236568248
152	0x3fe73f915ccda6a5	0.7265097439351008
153	0xbfc17c7dfce8a427	-0.13661169861851016
154	0x3fd8932a863054ce	0.3839823065221254
155	0x3fde6a02cf46ff10	0.4752203964417143
156	0x3fe1e1e9b409f006	0.5588272587187937
157	0x3fce4cc4579b025d	0.2367177417527441
158	0x3fe867f150142bfa	0.7626883091010079
159	0x3fedb19605178d96	0.9279279803708274
160	0x3fcef723d01cd371	0.24191711103199112
161	0xbfda431210bcf737	-0.41034366259178817
162	0xbfe53eabe472698a	-0.6639003240446055
163	0xbfe5a1c2675fe11e	-0.675996019271256
164	0xbfd1023757a6a581	-0.265760264965671
165	0xbfa3ea03d5a10279	-0.03889476759696193
166	0x3fc97d44e0fd3524	0.19913540826602472
167	0x3fd93464df498f17	0.3938228779354502
168	0xbf9270a7496e2ce3	-0.01800786386187959
169	0x3fe526df25c6efeb	0.6609950769266083
170	0xbfc6a7a3e7c92245	-0.17699097459468952
171	0x3fb2b4e33c16ee35	0.0730726262763078
172	0xbfd7b2573fa30feb	-0.3702600594954208
173	0xbfbd956f469503e9	-0.11556144211955623
174	0xbf9653e8db01e3ff	-0.021804464690351463
175	0x3fd9c1eee5ba48f2	0.40246174272864643
176	0xbfd064ed99b48d71	-0.2561601639774472
177	0xbf88bdbddb57dda3	-0.012080653435062432
178	0x3fbcd41ae2ad6344	0.11261146577943487
179	0x3fde0429c63d75b4	0.4690041004122023
180	0xbfbd025ee1ce114c	-0.11331742298904607
181	0xbfc02a89ec9e23b2	-0.12629818013763622
182	0x3fd401a5e905c461	0.31260059124094225
183	0xbfb99667bb512131	-0.09995125125090422
184	0xbfd2490d4af03f9d	-0.28570873563966775
185	0xbf4f5ad9b9c6186b	-0.0009568751443545081
186	0xbfd1bfc2c923df31	-0.2773291553744342
187	0xbfd785c0cfc698a6	-0.3675386456546995
188	0x3fe6b30a36b457b0	0.7093554562040847
189	0x3f99c0d5ec91c8b2	0.0251496720924897
190	0x3fb45f339c5e795e	0.07957766120532514
191	0x3f997a4d64282523	0.0248806087857122
192	0x3fb9d7e21baa49a6	0.10095036673945987
193	0x3fb95a9a3d619e9d	0.09903873442237417
194	0x3fe143f5d00a36c2	0.5395459235457667
195	0xbfe2beb46ec6b937	-0.5857793964003467
196	0xbfd3c2707ad08792	-0.30874263757333964
197	0x3fd41ada1797fe2e	0.31413891128611027
198	0x3fd1a0ba681750d0	0.2754350677980826
199	0x3fd649da2b30ca26	0.34825758188086053
200	0x3fb6343934a3d61e	0.086734366752204
201	0xbfda8f95ffd5a3d0	-0.41501378997651006
202	0xbfb177f2d6289f6e	-0.06823652008517708
203	0xbfe90752ba779bbb	-0.7821439401567355
204	0x3fe101eaf8989494	0.5314841132536849
205	0x3fd4df5be71a8b51	0.32613275116653023
206	0x3fcc9ddd6e3f711f	0.22356765635675743
207	0x3fd6590407b76d6a	0.3491830897671294
208	0x3fd663eae791c498	0.3498484860820752
209	0xbfb5cf44226416e8	-0.08519388045905496
210	0xbfc3af4ed1d8f843	-0.15378747221433473
211	0x3fd017e6d97360a5	0.251458847383683
212	0xbfc34eb1c147bea3	-0.15083906114113174
213	0x3fb7092c2d66d1ac	0.08998371227682495
214	0x3fd8a096252fcd59	0.38480142241970366
215	0xbfc1790144d4ccbd	-0.1365052782144626
216	0xbfe167f14e7058f8	-0.5439383060463845
217	0xbfc2a1013e2949a5	-0.1455384782335162
218	0xbfabe028579e2489	-0.05444456166794349
219	0xbfe5db0dea196851	-0.6829900333643854
220	0x3fe1b870b865e09e	0.5537646867296819
221	0xbfc19a31d21b2d05	-0.13751814612474092
222	0xbfd8c95f1d10388a	-0.38729074323863044
223	0xbfd33da274788a99	-0.30063687681301016
224	0xbfe1a9c53ed986e5	-0.551973936799382
225	0x3fd6b1cda6de3f6a	0.35460225387304567
226	0xbfc145e4b540450e	-0.13494547701024157
227	0x3fd12ae76627703d	0.26824364639265125
228	0x3fdc3d43e2b51694	0.4412393297137467
229	0xbf7e28d7a6a8603e	-0.007363169085259412
230	0xbfd1af16b96cf3dd	-0.27631157024353376
231	0x3fb3a7a1011efc55	0.07677656438225829
232	0x3fa983cff6a05a45	0.0498337734754171
233	0x3fcc766fbb51f775	0.2223643936776473
234	0x3fc60e380f8da30c	0.17230892905652018
235	0xbfb1c4299fa67c43	-0.06939945361817572
236	0xbfc2cd3b0f0813ca	-0.14688814386332033
237	0xbfa63e44d0e4f213	-0.04344382333735921
238	0xbfa742a28de582b8	-0.04543025953421903
239	0x3fe61a2546d0c48b	0.6906916030039992
240	0xbfc813685be570b0	-0.1880922745430147
241	0xbfeb22fd131b3350	-0.8480210660141925
242	0xbfd445ff164b1abc	-0.31677224328124587
243	0xbfe0fb4dad94044a	-0.5306766882132561
244	0xbfc8938a86537fa9	-0.1920025974168287
245	0x3fd49982869345df	0.321869498654534
246	0x3fe73ec14b19a61a	0.7264105288315392
247	0xbfc9c23afe330362	-0.20123994266580342
248	0x3fde898f53686833	0.4771459879426658
249	0xbf878a1d485cf93e	-0.011493901034211104
250	0xbfb0c83835f0d5ed	-0.06555510823167028
251	0x3fc8f6c26aaf2535	0.19503050049960682
252	0x3fe04f77c70024a6	0.5097006689767525
253	0x3fdf1b3463f0422b	0.4860354400598534
254	0xbf917134c9d9ae11	-0.01703340990063224
255	0xbfd5b2797d9cd62f	-0.33901822344646154

transform.0.head.0.value.lora_B f8 [8, 8]
0	0xbf62c18399bacd1a	-0.002289540321578476
1	0x3fa261ea1423de37	0.0359032773575873
2	0xbf915f09fee413e6	-0.016964107687289863
3	0x3f898f87a7e4f20d	0.01248079281924055
4	0x3f9e11934de11a36	0.029363919857383368
5	0x3f83308e1d786571	0.009369955324518316
6	0xbf93a4bc6bc76b5a	-0.01918310554342937
7	0x3f919db0c181e97a	0.01720310383869037
8	0x3f89b3b45dc30022	0.012549790488606109
9	0x3f9005484ba67eee	0.015645150773365417
10	0x3fa40cacef5a3a4d	0.039159206598118425
11	0xbf74e88a8dccbfda	-0.005104581094926142
12	0x3fa305b02c3a4e6a	0.03715277233018528
13	0xbf6a5df0e0f44d0a	-0.003218622652306662
14	0xbfb11c68096ee7c2	-0.06683969717315022
15	0x3f72f28f906d0702	0.004625855252756274
16	0x3f84cafd8a9f411d	0.010152798455152873
17	0xbf520de274a09988	-0.0011019431572179845
18	0xbfba93f35b60f550	-0.10382004719663951
19	0xbf90fa12a8826e3b	-0.016578952345851255
20	0xbf9f346e27930c55	-0.030473443189077482
21	0x3f3cc61b4315e2f0	0.0004390541608568074
22	0x3fa5510fd5daccb7	0.041634077887829184
23	0x3f9821a21e0d6141	0.023565800747151092
24	0xbf810f69e5bf328e	-0.008330180476968676
25	0xbfb25aa59b679454	-0.07169566196496763
26	0x3fbe89c5597ebf56	0.11928971705378663
27	0xbfb06018eeaa1796	-0.06396632982986569
28	0xbf915277a67a8e2d	-0.016916150604300895
29	0xbfa10a996fdd02a3	-0.03328399172324239
30	0xbfaa2776b315c70c	-0.05108233390900638
31	0xbfaaa0bc64ed177d	-0.052007567710957915
32	0x3fa4b1064dceee4c	0.04041309070404661
33	0x3fad319c0911eeb9	0.05701911555021639
34	0xbf968b55f4e302ba	-0.02201589877290886
35	0x3f6f7202994c8f94	0.00383854396422296
36	0x3f53eb78dede67cc	0.0012158089043396879
37	0xbf71a7d2e537b071	-0.004310439882356674
38	0xbfa9cb8958b3fd34	-0.05038098533440874
39	0x3fb32c2d0d87a9b0	0.0748928220779479
40	0x3fb522be4447e798	0.082561389608513
41	0x3f81684f26909fc0	0.008499735226067062
42	0xbf8123de84777bff	-0.008369196336330374
43	0x3f6fa9957f16a249	0.0038650436260534754
44	0x3f909b059a35cd8e	0.016216361558191
45	0x3fad947a528689b0	0.057773420881193416
46	0x3f656ef7a1ada18b	0.0026163898996182703
47	0x3fabda97e41af420	0.0544021097134435
48	0x3f8dc2db91638bcf	0.014531817793288852
49	0xbf7dac1b1ba390f7	-0.007244211092459311
50	0xbfcc59f6660f8162	-0.22149543746400996
51	0x3fac0f07abe39988	0.05480216954474587
52	0xbf8c1808223f41f2	-0.013717711968554067
53	0x3fac90246b98f69d	0.05578721822210506
54	0x3fb70163b3c99ca4	0.08986495150894541
55	0x3f9c170fc20b5c47	0.02743172284939657
56	0xbf5c1c2e993a5c77	-0.001715703493493396
57	0x3faf664c36d2a806	0.06132734460091176
58	0xbf980c1ac9d443b1	-0.023483675545381725
59	0x3fa1b62f3f689d1d	0.03459308289557781
60	0x3fa938538e080831	0.04925786122113641
61	0x3f8aa47e8040fc28	0.013009060181614698
62	0xbfab684e35da8db2	-0.05353016288179492
63	0x3f9a5a1c2abd4430	0.025734367474175623

transform.0.head.1.query.lora_A f8 [64, 8]
0	0xbfc270d702e6c5c0	-0.14406860009834865
1	0xbfe2e81d4664c857	-0.5908342718960381
2	0x3fd9bd260bf83230	0.40216971558473613
3	0x3fe2c0205f103403	0.5859529358582453
4	0xbfb3ca6034061066	-0.07730675954923213
5	0x3fdbf7713a872296	0.43697767940151644
6	0x3fe7d7ef8297eff2	0.7451093245176692
7	0x3fb1011c95550b98	0.06642321248823035
8	0x3fe5dd0b31667213	0.6832328762862424
9	0x3f960c6d66fa1a39	0.021531781587805752
10	0x3fd885fc699d21bf	0.38317785562369616
11	0xbfb5720b609a26b6	-0.08377143009615903
12	0xbfda79970576d6a9	-0.4136712602006392
13	0xbfc9cc30f7df710f	-0.20154392340817437
14	0x3fe0ee06cae6ba65	0.5290559733310373
15	0xbfc334cfb09ce70b	-0.15004917262722758
16	0x3fe666fd98925c9d	0.7000720958630101
17	0xbfe4fa401e7e7c4c	-0.6555481525027829
18	0x3f903498eb0c6e0c	0.015825642915940505
19	0xbfdcac432732070f	-0.44801405742337946
20	0x3fc2d1162e94b14c	0.14700581812338454
21	0xbfa9c5e6b85ae84e	-0.050337991718564554
22	0x3fca2c63fe900648	0.2044796936971116
23	0xbfe1850696a498ef	-0.5474884931798253
24	0x3fcaf2965a7cef6e	0.2105281774364544
25	0x3fe3bbee40869f0d	0.6166907558699407
26	0x3fbd6fa3c8236248	0.1149847377413461
27	0x3fd5da6e0a1def09	0.3414568995283252
28	0x3fd6e13e79d433a9	0.35749780557017147
29	0x3f9bc89247d1c947	0.027132306703103095
30	0x3fcdc8d9658c9d39	0.2326919313283982
31	0x3fd71d459be55386	0.36116161560249116
32	0xbfd8213dfa7c1e59	-0.3770289369717595
33	0xbfefdbfd04f3ce6f	-0.9956040474630309
34	0xbfe63f2edb2c75c9	-0.6952127724395548
35	0xbfb2c84081d0eab3	-0.07336810273492737
36	0x3fe1aff289b7fe98	0.5527279558009068
37	0x3fd0c25ecb6cdbcd	0.26186342111344346
38	0xbfa3e47e242008aa	-0.03885263625126474
39	0x3fe048d3bb19782c	0.5088900236403382
40	0xbfc648a951e473fe	-0.1740924501290521
41	0xbfce06245e70ccf1	-0.23456244098051784
42	0x3faa34fb9901479f	0.05118547671067052
43	0x3f92ccdb08c31ff8	0.0183595871065165
44	0xbfb739bb37accdb6	-0.09072466000798482
45	0xbfcddd8f97b47079	-0.2333240023371024
46	0x3fa0e82a0a564764	0.03302127243217859
47	0x3fd9e86cad9d8444	0.40481106714839066
48	0x3fc32d9b31cb2acd	0.14982929164246742
49	0x3fbef395bf84ed61	0.12090431142580861
50	0xbfb029b70485c0ad	-0.06313651905452629
51	0x3f8943f16c5f1850	0.012336622352347032
52	0xbfbd4589238aafd4	-0.11434228055685419
53	0xbfeade70fb35492b	-0.8396534830483565
54	0x3fcc5181e7b1a0bb	0.2212374097173376
55	0xbfcffbe426ea225e	-0.2498746099484092
56	0x3fe808e30f43dadc	0.7510848329682989
57	0xbf90fe4e64cca0a6	-0.016595101263334876
58	0xbfcd3a24b11a4182	-0.22833689353548087
59	0xbfc012ed3bf9339b	-0.12557759693518453
60	0xbfc5949fd02d30e3	-0.16859815277928822
61	0x3fc31c691d35b22b	0.14930452276475256
62	0xbfe1c3073bae601d	-0.5550571599624196
63	0x3fd5bf4792bd437a	0.339799779224499
64	0xbfd5b2ac450daf55	-0.33903033011914846
65	0x3fae5065a8b9dc63	0.05920713123935497
66	0xbfa8f5190ea9262c	-0.04874494842495056
67	0x3fee0faf7b5e8e38	0.939414730983521
68	0x3faf5594862e7cbb	0.0611997998996627
69	0xbf5a032e063cb6c5	-0.0015876721817664069
70	0x3fc80a95ac56d601	0.18782301821708816
71	0x3fc37473707f08db	0.1519913005159371
72	0x3fe4929bd3ec3b45	0.6428965701214585
73	0xbfc8ad10e7d351b9	-0.19278155631640262
74	0x3fda67e30d2e8d00	0.4125907543877503
75	0x3fe37eb23eccc0ad	0.6092158533629309
76	0xbfc1c89994598bc7	-0.13893432372705503
77	0x3fd138ad662561f7	0.26908431029508456
78	0xbfd645f82205920d	-0.3480205852741001
79	0x3f8b98022a76df53	0.013473526879223796
80	0xbfde1a59cea14f35	-0.4703583257553306
81	0xbfddb8aac43e6e52	-0.4643961826747943
82	0x3f7f58d82f234680	0.007653088063493407
83	0xbfba03f79e138e07	-0.1016230355194737
84	0xbfcf76ca55ab933b	-0.245812694388542
85	0xbfcb0831a6bd4082	-0.21118755952420903
86	0xbfc517bdf7b088b4	-0.16478705019205153
87	0xbfd88fb0b7c1a6f4	-0.3837701601502055
88	0x3fa9ae20c67eeb34	0.0501566164307036
89	0xbfe1e2356b7b7fda	-0.5588633631959923
90	0xbfc9a5d22dff6c87	-0.20037295576080202
91	0xbfd7fbd03eda0121	-0.3747444738182982
92	0xbfda19bfe73588be	-0.40782163218512923
93	0x3fa3493ddfbf1621	0.03766816478995972
94	0xbfa2508bb3d4c642	-0.03577076502041311
95	0x3fcf887f73a0ab36	0.24635308404807582
96	0xbfde5bc590763e8e	-0.4743513022194542
97	0xbfe16db970763202	-0.5446440884130086
98	0x3fd904bb52a9e50f	0.39091380188581665
99	0x3fbae716b6d04d27	0.1050886341402487
100	0x3fcdf8bb6feb1b63	0.234153203628206
101	0xbfdcb8b6bba86b21	-0.44877403570142077
102	0x3fbb53fbf226c9bf	0.10675024663831943
103	0x3fd2e39c74afdc68	0.29514228244028695
104	0xbfb66e5368307a5e	-0.08762093824086878
105	0xbfd9470b9da0f30e	-0.39496126550129496
106	0xbfb8a18b66114c6a	-0.09621497384914482
107	0xbfd3ee09c17a3876	-0.3114036931446046
108	0x3fcf9eed056d1cb9	0.2470375324721539
109	0x3fd39ca952358860	0.30643685367807016
110	0xbf8781ee44346f9f	-0.011478291946836637
111	0x3fe165abfcc541a5	0.5436611115383597
112	0xbfe1f1d92f8e808f	-0.5607725075569919
113	0xbfd6697b39b283cd	-0.3501880706262995
114	0x3fc75cd29d8ee4ef	0.18252022450705094
115	0xbfdd24eac31b286f	-0.45537823727921184
116	0xbfc18b5f241afa57	-0.13706578505476116
117	0xbfe544a6915ca091	-0.66463020697576
118	0xbfd7c88dc2c59bd7	-0.37161582966512924
119	0xbfa46d90f7f56d77	-0.03989842440452212
120	0x3fc3c4fb6c03ea16	0.15444891714271652
121	0x3fe70bb82741e2d6	0.7201805845971545
122	0xbfd6767e0b6402ee	-0.35098219978685463
123	0x3fd1f614758fe512	0.2806445262973095
124	0xbfdd054a9e1c2593	-0.4534479660074677
125	0xbfa5d7e0e5b75534	-0.04266264728691241
126	0x3fc2c679d001d0e5	0.14668200165363668
127	0x3fb7c2ed249f341b	0.09281808990563471
128	0xbfd2de513d5d2bfb	-0.2948191737420413
129	0x3fb94911da54385b	0.09877120571420177
130	0xbfc5cfe0c9cbec38	-0.1704064355215864
131	0x3fcb7a12aa141c50	0.21466286949746172
132	0x3fc36c7385276f89	0.15174716951048264
133	0x3fee9bcf95b6b2a2	0.9565198825926766
134	0x3f728dc14d44fe75	0.00452971943406021
135	0x3fe27f65231473ff	0.5780511555818747
136	0x3fe41837aabbd1bf	0.627956231559942
137	0x3fd7180d2a581beb	0.3608429826276153
138	0xbfb4e7ac41fd4884	-0.08166004763669049
139	0xbfcd8f425bcb5303	-0.23093442423000718
140	0x3fbbf8dce15ea96d	0.10926609518233983
141	0xbfdae9887178d2de	-0.4205037220120128
142	0xbfd7f0e5d582edf0	-0.3740782342026412
143	0x3fc0ca00d2bad295	0.13116464890994864
144	0x3fcbc01775b2e4d9	0.21679967162143646
145	0x3fe5542d58ddeab8	0.66652552944955
146	0xbfd20e81ea469983	-0.2821354663705266
147	0xbfbbe98ac66e41ad	-0.10903231949328669
148	0x3fe120902dffd83a	0.5352250002313277
149	0xbfbbcbcd2cb133a2	-0.10857851353757877
150	0xbfd123020d444412	-0.26776171966145157
151	0xbfef215698161773	-0.9728196115909057
152	0xbfcb191ddeb69c27	-0.21170400023149336
153	0x3fe837c10cfcc67f	0.7568059209499579
154	0xbfbe12b8588b2c73	-0.11747314607343799
155	0x3fd7b0d65be7ba2e	0.3701682946693009
156	0xbfbb6678af88c301	-0.10703233991149476
157	0x3fd5b24fbe9f3f4b	0.3390082704108763
158	0x3fd6d3635bf6effa	0.3566521070567884
159	0x3faed59b775da870	0.06022344429114035
160	0xbfd478cb9335c24d	-0.31987275482155014
161	0x3fe7d48f6ce7672f	0.744697296812978
162	0xbfd4122d00993970	-0.31360936220598656
163	0xbfdaaeaf86dddc16	-0.4169119660431887
164	0x3fe76d1efb8cff89	0.7320704377270754
165	0xbfd3939425cfd841	-0.30588248913352706
166	0xbfe0cf0bad853336	-0.5252741231030089
167	0x3fcb0ebc05a3d53d	0.2113871600665024
168	0xbf8f01920e31bc6b	-0.01513971429650792
169	0x3fe20d1aae42ca4f	0.5640996364148324
170	0xbfca47bef7a58716	-0.2053145131313207
171	0xbfbd4bdfb64033fa	-0.11443899344904188
172	0x3fc3e9b5b2ddc988	0.15556975587567146
173	0x3fd69b87fab5357c	0.3532428692168066
174	0x3fd014857f719410	0.2512525314871832
175	0xbfe1f84c7fa71cf1	-0.5615599148958649
176	0xbfdb58876cc27235	-0.42727838154840764
177	0xbfcdba2843555d1b	-0.23224356925741393
178	0x3faa855c10984f90	0.051798703218223996
179	0x3fd3f305c2450985	0.3117079159893808
180	0xbfd8e168e60c97f2	-0.38875791993848374
181	0x3fe6752dfd9713c0	0.7018041565830728
182	0xbfc9fad7d0308216	-0.20296762147428699
183	0xbfded2beeeaf3676	-0.4816129046347223
184	0x3fd4cf34d17271a3	0.32514687017262583
185	0xbfb008437152d8ec	-0.06262609020891191
186	0xbfcc48acdbd4f0f5	-0.2209678719899625
187	0xbfe54e7412e83fa7	-0.6658268327027955
188	0xbfd0e5e5d8e5e6e0	-0.26403185063791845
189	0xbfd3aa670a3da194	-0.3072755432135861
190	0x3fd6436c37901f40	0.3478651564223476
191	0x3fe58f9d09563229	0.6737809355123022
192	0x3fd2f4477d293018	0.2961596224092786
193	0xbfe79da1e48cd09c	-0.7379922355526278
194	0x3fae876cc793a756	0.059626960146330774
195	0xbfe1f22d34587160	-0.5608125707981735
196	0x3fd2e403e95182bd	0.2951669481754314
197	0xbfcee3c9d443cc7d	-0.24132655014509288
198	0x3fdd046921dcad85	0.4533942061122718
199	0x3fc8ffade8567cc8	0.19530271381970565
200	0x3fe05a9108c848e5	0.511055485871364
201	0xbfb722e8a963f0d3	-0.09037641654498722
202	0x3fc8439e06fad580	0.1895635160523561
203	0xbfb08002d693a705	-0.06445329416933639
204	0xbfc389773f344c4f	-0.1526326235403723
205	0xbfc91aba8980eee8	-0.19612819398923098
206	0xbfd255e2f4e63345	-0.28649209896029887
207	0x3fb2df9063a90334	0.07372381623373486
208	0x3fca7975e7b59dd6	0.20683168233811838
209	0x3fd355f92d76892b	0.3021223968481929
210	0xbfa7ea3bf87b1384	-0.04670894058430178
211	0x3fcd02af2f0b0b23	0.2266444186880899
212	0xbfc4be69bde32361	-0.1620609452422981
213	0xbfd3488516fc0d46	-0.30130126232707644
214	0x3fe51505f3e60c88	0.6588163150448887
215	0x3fcd5f3bf3af8798	0.2294688167449379
216	0xbfc11db496038ad0	-0.13371903729338053
217	0x3fb863276fb39c72	0.09526297070589054
218	0x3fd1345151a62b2e	0.2688182160715539
219	0x3fbd66d137168937	0.11485011668131483
220	0x3fe194a9aa11caea	0.5493973085088701
221	0xbfb2c9e21af32c8a	-0.07339299352604392
222	0x3fdf02e4c78a4b30	0.48455161558483706
223	0x3fdae81e8ac1e462	0.42041743803526377
224	0x3fe3644665a01a9b	0.6059905991431437
225	0x3fcf6b3ff8d685f6	0.24546050691883153
226	0x3fcdb5a3727d7535	0.232105666068415
227	0xbfbb49881ad2335f	-0.10659075407802508
228	0x3fc366fe2448667d	0.1515805890237977
229	0xbfe89aa45d52b749	-0.768877203246782
230	0x3f8f5defd5c7970c	0.015315889083420874
231	0x3fe4b491e3730dd9	0.647042221295517
232	0xbf6f5f0b580a7b80	-0.003829500347208137
233	0xbfd31312d24505ac	-0.29803915533201564
234	0x3fbd33bfefca066c	0.11407088855960418
235	0xbfef4373a58144d4	-0.9769838554876977
236	0x3fb4f5db89aba348	0.08187648879142018
237	0xbfcb83a0c617f4d1	-0.2149544684652143
238	0x3fd2e533f9b7f374	0.29523944269731506
239	0x3fb2fa78c85e9a00	0.0741343964751664
240	0xbfc23398026a150e	-0.14219951742067177
241	0x3fe04009bbfd7d50	0.5078171416934456
242	0x3fc392739f45a3c7	0.152906849641367
243	0xbfc27151a3c43904	-0.1440832185402955
244	0xbfb2a665c64abae5	-0.07285152522193135
245	0x3fb084d83d75d187	0.06452704906934602
246	0xbfd0ac994aff7ef4	-0.26053459476496177
247	0xbfb81a2858b38231	-0.09414913335377474
248	0x3fd39b9ba10fda19	0.3063725540991143
249	0xbfaf4887351c61c4	-0.06110022090269099
250	0x3fb96fa3474ce3ea	0.0993597077439429
251	0x3fc6e0bb15bc6bdc	0.17873323975876942
252	0x3fd1b0c958fbfdbf	0.2764151925075246
253	0xbfb3edc35cc02a4b	-0.07784672750873615
254	0x3fd43893e7ef2a13	0.3159532322867175
255	0x3f96fd443d268827	0.02245051024659275

transform.0.head.1.query.lora_B f8 [8, 8]
0	0x3f6ff357ecca8368	0.0039002148899531137
1	0xbf59cc85efd5d849	-0.0015746410348049958
2	0x3f6958f3427836a5	0.0030941725888230126
3	0xbf3fd20738b4ada2	-0.000485541117728439
4	0x3f7081e7c4f586c6	0.004030137395007299
5	0xbf65466fdd198def	-0.0025970635258987167
6	0x3f77a008ff1b2039	0.005767855780227698
7	0xbf6d1c63328c1e2f	-0.0035535752725797324
8	0xbf60aa0c954a0b59	-0.002034210754858473
9	0x3f6db787eff41dea	0.003627553465438406
10	0xbf66240332c37901	-0.0027027189699843084
11	0xbf71da3b427ca80c	-0.004358512385616475
12	0x3f720021825631c7	0.004394656081228416
13	0xbf2d394717dab6f2	-0.00022295945011790264
14	0x3f6ab97750283893	0.003262265237260095
15	0x3f7201135ade77f3	0.004395557027150321
16	0xbf593e46b9a3e455	-0.0015407267260896436
17	0xbf6517fb8f3b4210	-0.002574912383217283
18	0x3f42d5d5556bc020	0.0005748073261582255
19	0x3f5162a033b83cd8	0.0010611118767689855
20	0x3f66338ce6639322	0.0027101280166895872
21	0xbf59af0c4d085f92	-0.001567613613707029
22	0x3f4ffbf120cb10ed	0.0009760787375730197
23	0xbf793900daedd5c8	-0.006157878246872035
24	0x3f876bc8f2a9b318	0.011436052232249902
25	0xbf714841a320db9b	-0.004219299693480584
26	0x3f4f1639e2f9b585	0.0009486944818043885
27	0x3f6dba8c0d8e74c7	0.00362899164288297
28	0xbf85f161fedf41c2	-0.010714307394580017
29	0x3f4f469998034f93	0.000954461094830427
30	0xbf7411c75b34059c	-0.004899767623329689
31	0xbf65ecc2849bde26	-0.0026763724498513218
32	0xbf866911b04b2de9	-0.010942590897136522
33	0x3f744534e99e0170	0.004948813142505379
34	0xbf6e2ae9c4c5a565	-0.0036825719636694337
35	0xbf7cefa4b730eb0b	-0.007064479275011202
36	0x3f875df31cbba14d	0.011409663500174938
37	0xbf72374f2859d587	-0.004447278222519008
38	0x3f5fd38a616ad3cb	0.0019425250408577784
39	0xbf4f6276c37c24cf	-0.0009577827358679072
40	0xbf68e0f5128f115d	-0.003036955506532531
41	0xbf45914b763bbe21	-0.0006581896272716583
42	0xbf5617a51d4224f4	-0.0013484108394855006
43	0xbf3b3ddc2bdd1589	-0.00041567445065412344
44	0xbf8268fbe2302ca4	-0.008989303436484804
45	0x3f6004ff2d4d8371	0.0019555076527670236
46	0xbf47deb87560d05d	-0.0007284546543418025
47	0xbf3bc88c3fc7caa7	-0.00042394088794065827
48	0xbf7b74dc22d2f392	-0.006703243166325106
49	0x3f61157612bd10e1	0.002085428821290689
50	0xbf6996085ede95fb	-0.003123298977657949
51	0xbf8031e89fb4d435	-0.007907693265773211
52	0x3f8439a87882038e	0.009875599076851118
53	0x3f72fa3d0b52cd4b	0.004633177236587581
54	0x3f63516dc435dc69	0.0023581642032542327
55	0x3f7d506b15c8621b	0.007156770993355123
56	0x3f773230010a283d	0.005663096919883923
57	0xbf73a564d8871f25	-0.004796403817131344
58	0x3f51e7c27b9b0838	0.0010928534742764683
59	0x3f63419dd295ba08	0.0023506243202782197
60	0x3f66036fbdd9d103	0.002687185521432879
61	0xbf2c5cba9fe66c3d	-0.0002163865864986697
62	0x3f61b18374cfed2e	0.0021598403459372117
63	0xbf252ea26ac0fd84	-0.00016160709981425877
