core/models/my_model copy.npz (npz, 883100 bytes, 116 tensors)

embedding_matrix f8 [131, 32]
000000 6b 90 bc 62 4f 4f ec 3f 20 fd 4b 39 52 26 e1 bf
       0.8846814087342073 -0.5359278792456372
000010 ad 28 d7 7c 8f ba e0 3f 6d 91 96 64 5a 1d e4 bf
       0.5227734983721085 -0.6285831417667801
000020 fc f4 c2 a2 ef d0 f9 3f c8 8d b8 c5 95 17 f4 3f
       1.6135097844956467 1.255758068415945
000030 ab 75 bc 12 ac fb f1 3f 42 51 41 24 dd c5 f0 bf
       1.123943398655096 -1.04830660020987
000040 46 73 26 13 6b b6 b2 bf 99 b5 49 72 bb 10 ca 3f
       -0.07309598176511853 0.2036356266066093
000050 d4 eb 91 8e c6 f8 d7 bf 36 26 64 a6 b9 b6 b8 3f
       -0.37455905840732595 0.09653816520963052
000060 b1 cc 55 20 ac a3 00 40 e1 8d c6 14 64 fa d6 3f
       2.079918148630519 0.3590326502691977
000070 ca b5 ff 0b e7 e9 e5 3f 0f 17 75 2b 5c 2f f4 bf
       0.6848025545456775 -1.261562509303477
000080 c7 04 66 01 b8 30 d1 bf dc 4b 7a 31 cc 0e e3 3f
       -0.268598557821019 0.5955563513147086
000090 f0 1c f8 03 2a 3c e4 3f 6f 16 a3 41 26 56 e5 bf
       0.6323442533038399 -0.6667662889455651
0000a0 78 5a c2 5a 75 09 cd bf 3c 6a 47 9b 78 c2 c6 bf
       -0.22685114795304506 -0.17780978757839871
0000b0 76 2f 01 06 6e 15 c2 3f 7b 71 01 bd 78 62 df 3f
       0.14127898495859953 0.4903852315672094
0000c0 b5 ce e9 1b a6 88 de 3f ae 7f ba c6 c7 c4 cd 3f
       0.4770903847304269 0.23256776050129474
0000d0 f4 9f 21 36 71 ff c6 bf ea 83 09 62 ce 8a f8 bf
       -0.17967047827846694 -1.5338882283760946
0000e0 54 74 65 f4 ec ef ed 3f 67 94 e5 6d 5a 35 e5 bf
       0.9355377934804303 -0.6627628466054717
0000f0 a8 41 e7 37 5e 31 fd bf e7 58 0b db 32 ed fa 3f
       -1.8245527442669331 1.6829098278445203
000100 ca a4 96 99 40 62 fa 3f 01 d2 c9 b5 93 54 f2 3f
       1.6489873885678201 1.145648679838928
000110 08 1c 0b bc 0f c6 ba bf 30 b0 12 c7 c0 63 f6 3f
       -0.10458467808631167 1.399353768948469
000120 43 b7 f3 cc e3 2b 05 40 70 3d 7c af 43 32 db bf
       2.6464305889011555 -0.4249428952907328
000130 56 79 7e f0 eb 86 d0 3f a9 f0 dd 1e 8e c0 b2 bf
       0.2582349632811164 -0.07325065854633074
000140 8b 73 01 15 8e db c3 3f 92 4a dc 54 45 81 f2 bf
       0.15513778711001822 -1.1565602602828773
000150 e3 a6 d9 aa 11 39 d3 3f d0 a7 43 85 18 27 f5 bf
       0.3003582161387454 -1.3220448690067208
000160 46 fa 79 83 ca ed e4 3f 7f d5 80 32 4b f8 e6 3f
       0.6540272300624757 0.7178092943565132
000170 66 61 fa 4e 19 e6 cf bf 7e 00 98 8d d9 43 01 c0
       -0.2492095599780086 -2.1581297933590227
000180 3e 69 d9 c9 3a 57 ea bf 41 6b 2d 82 9e 89 e2 bf
       -0.8231481497162247 -0.5792992155578319
000190 b3 dc 55 dc 85 a4 e4 bf 8f a6 5e a5 11 a3 ee 3f
       -0.6450833609987029 0.957405875194313
0001a0 09 12 80 4a a2 7b f8 3f 89 cd 56 e1 ab 8e b9 bf
       1.5301840696494102 -0.09983324290697317
0001b0 1e 04 d0 07 87 12 e4 3f 95 27 9f 06 15 73 f1 3f
       0.6272616531933897 1.0905962237033908
0001c0 32 85 79 c4 a8 2a c6 3f 63 d9 ae 77 ab e8 ef bf
       0.17317685693255097 -0.9971520745810206
0001d0 bd 42 f3 02 d0 11 f2 3f 64 2c 68 e5 84 62 ea bf
       1.1293487658733021 -0.8245262604335832
0001e0 f5 49 3d 77 cd 9e f5 bf 4a e5 2d 92 3c 1f e3 3f
       -1.3512701661862796 0.5975630621971189
0001f0 f7 9b f3 11 c7 c9 00 c0 5b 33 11 5a 8e 5c e0 bf
       -2.098524227377762 -0.5112983473896792
000200 b1 14 20 4f f7 90 ea bf 7f 7c 13 bb 26 77 a6 3f
       -0.8301960511604617 0.04387780221599601
000210 14 30 fa 3b 19 8a d2 bf 49 f2 d6 9b 78 c4 c9 bf
       -0.2896788678851874 -0.2013083229957309
000220 c5 d1 ba 17 1c 38 d1 bf ac 31 eb 12 0a 3c fc bf
       -0.2690496665702791 -1.764658044720913
000230 aa e1 af e5 d7 5e e1 3f 28 01 29 b1 37 4d bf bf
       0.5428275571894592 -0.12227199626159246
000240 7d ba ac 27 ae 41 ed 3f 91 42 b0 82 16 ce c2 3f
       0.9142676138779532 0.14691430455470258
000250 9e 92 76 0e 42 92 f8 3f 01 19 32 4f ff cd a0 3f
       1.5357075276344072 0.03282163469070732
000260 9a 69 07 41 7d 47 e9 3f eb 28 5e c9 f7 4c f3 bf
       0.7899767179581432 -1.2062909952097083
000270 bd 55 6d 91 c6 0a dc 3f 8a c6 59 79 2a 48 a2 bf
       0.43815769388069353 -0.035706832230869415
000280 fa ec f6 66 b9 4a e4 3f 43 63 8e b1 05 c6 d7 bf
       0.6341216097856937 -0.3714613183924948
000290 ea d8 3c 0f 70 a4 e0 3f 7f aa 2e 10 38 eb fa bf
       0.5200729653941185 -1.6824265129204432
0002a0 2a f7 35 8f b9 99 d9 3f 19 12 0c b7 c2 a1 c0 3f
       0.40000761971883725 0.1299365419182699
0002b0 79 bd b8 7a 4b 19 f6 3f 2e 1c a2 a8 98 e5 91 bf
       1.3811754983724696 -0.017477402966076187
0002c0 b0 23 bf 50 01 df 8a 3f 25 c7 93 7b 6e a6 f4 3f
       0.013120661045734255 1.290632708285963
0002d0 7c fd 12 1c ca 8d c2 bf fc 98 4d e6 a5 3d b4 3f
       -0.14495207186517323 0.07906567452082308
0002e0 f7 2c 10 46 62 af f6 bf c5 6b 9b f3 35 d2 02 c0
       -1.4178183304637153 -2.35264196699197
0002f0 69 76 84 c7 6b 04 01 c0 e1 7f 17 85 4f ca e7 3f
       -2.127158697824417 0.7434461211632845
000300 7f 1c 3a 0a 3c 0e fb bf e7 a3 2b 84 de 05 b5 bf
       -1.6909752273075183 -0.08212080694978817
000310 1b 36 f6 c8 fd 0e dd bf 0d 42 75 99 41 f1 cc 3f
       -0.4540399992482393 0.22611255639141384
000320 e2 e2 d6 2a ac 2d f1 bf 8f 98 85 d0 a4 ed dd bf
       -1.073650519696621 -0.46762962687933735
000330 9a f1 e6 00 d3 3a b0 3f 90 45 7e c9 4a 64 fd bf
       0.06339758655571473 -1.8369853850202595
000340 f1 2e e7 bb 86 6b d1 3f 92 dc da ba 52 99 f4 bf
       0.27218788480671124 -1.2874324130077963
000350 85 0b 39 83 ad c8 bf 3f e2 7f 27 b4 4c 4b f8 3f
       0.12415584996874258 1.5183836972500946
000360 f4 8c 55 62 2d a1 f1 3f cb 69 c0 41 bc b4 d8 3f
       1.1018499222926126 0.3860312120538338
000370 47 8f 9b 4d 1d 72 e1 bf c3 c2 e6 75 75 d4 b8 bf
       -0.54517998845811 -0.09699186447574974
000380 ee a4 dc 62 d2 b0 db 3f ac 99 41 75 28 cc f3 3f
       0.43266734747392277 1.237343271286231
000390 29 99 50 e3 28 84 ed bf c0 03 58 3e 67 7d f1 3f
       -0.9223827781432067 1.09311603882837
0003a0 b8 4a 8d 9c 4d 68 f8 3f a7 69 a7 20 92 9e cb 3f
       1.5254646411237172 0.21577669710570754
0003b0 1f af 08 bf 28 94 f1 3f c8 09 94 40 be 5d d6 3f
       1.098671671129473 0.34947162920448394
0003c0 47 10 ea ec 49 33 72 bf bf 6b 24 c6 f6 21 00 c0
       -0.004443444033885475 -2.0165839652886173
0003d0 47 f2 9e 59 57 81 b7 3f 0f 21 bd 21 80 fb c7 3f
       0.09181734025964615 0.18736268660928387
0003e0 57 26 d0 27 d3 2b dd bf df fd 02 b5 3d f9 f7 3f
       -0.4557998551177653 1.4983498640793795
0003f0 a0 d6 f2 cc 52 2a f0 bf 77 dd 0c 7b f9 ec d8 bf
       -1.0103328710369297 -0.3894637777006759
000400 4d 04 3a 02 7a 35 e9 3f d0 26 19 7e 07 4a e4 bf
       0.7877779048432189 -0.6340367758613983
000410 d3 e2 6d 33 cb db c5 bf bd 42 76 c8 ad 2a d6 bf
       -0.170770073043761 -0.3463549096714294
000420 9d 40 5a 73 f4 8a ec bf 63 4d c6 ac 40 1d e9 3f
       -0.8919622662524663 0.7848208784584297
000430 11 30 ca dc 92 d1 d7 bf 46 41 78 4b c4 55 f3 bf
       -0.37216636239532 -1.2084391544377282
000440 92 d7 6a 9c 1b 89 f4 bf 8a 8e 33 ae e5 9c b6 3f
       -1.2834735975315863 0.08833156111682619
000450 61 d4 78 3b 7c 37 af bf 78 ef 06 7a 70 42 fc bf
       -0.060970194110645755 -1.7662205473597776
000460 0b 46 ef 91 dc 8d d0 3f 7d 08 e1 df 12 9b f4 3f
       0.25865854503089797 1.2878597970270953
000470 ad 5c 14 c8 da 05 db 3f c4 dd fc 5b 22 79 d4 bf
       0.42223233737008564 -0.3198934458082159
000480 0f 9c ce 7d 64 2f 09 c0 27 59 ce 46 54 0a b5 bf
       -3.1481408909489867 -0.08218886116660383
000490 30 26 38 34 e8 45 f3 bf ce a8 31 ea 03 cf ef bf
       -1.2045671500985797 -0.9940204214192592
0004a0 bb 67 c7 ea bb a8 01 40 60 4e 93 7d 23 25 e3 bf
       2.2073896734336507 -0.5982835247654741
0004b0 b0 12 64 f4 c4 93 fc bf ee 32 e4 df c9 ce dd 3f
       -1.7860765024681022 0.4657463728370165
0004c0 8f 03 d8 0f 82 15 ff 3f 72 5b f9 34 c3 55 e7 bf
       1.9427509898089033 -0.7292190584802098
0004d0 39 b1 4f 78 9e 6a d8 3f 61 47 06 e7 ef c4 f4 3f
       0.3815075087466258 1.298080351295049
0004e0 99 e7 a3 44 f1 6b f6 3f e7 f5 44 1d 28 a8 f5 3f
       1.4013531380901212 1.353553881009583
0004f0 9c 4f a9 fa 9d 81 f9 bf d2 2f 76 df 63 60 f4 bf
       -1.5941448012790493 -1.273532746216905
000500 f8 75 5c 95 5e e8 f6 3f e1 aa b2 fb 17 99 ea bf
       1.4317308267994786 -0.8311881938910483
000510 a1 6b 1c 88 41 0f 02 40 63 24 a7 e9 4e 0a ef bf
       2.2574492105172372 -0.9700083316357787
000520 75 c1 8b 43 83 23 dd 3f 70 22 63 a4 d6 49 a7 3f
       0.45529252620965305 0.04548521763496616
000530 bf 8e d5 37 6f 5f fa bf b0 53 3e 8e 1b 69 e6 3f
       -1.6482994252227596 0.7003305223648706
000540 5f 86 d7 90 26 91 d6 bf 80 bb b6 dc b6 a4 e4 3f
       -0.3526092924567816 0.6451067267242792
000550 cd f6 f1 48 85 16 e4 bf c9 6c 1d 08 59 2d f3 3f
       -0.627749102088012 1.1985712353696718
000560 c3 a1 a8 e0 0b 4d eb bf c2 60 c2 59 98 8c de bf
       -0.8531550777307121 -0.4773312450938755
000570 50 6e 4b d3 a0 26 de 3f 32 64 76 ce 21 dc 01 c0
       0.47110767969363554 -2.2324863557701287
000580 aa f0 5d ac e9 34 d8 bf 67 ee db ee 57 59 fb 3f
       -0.37822954018316557 1.7093123751100394
000590 fa a1 bd 0d 52 a7 e1 3f b1 3f 93 96 47 a8 d3 3f
       0.5516748684286192 0.3071459742031904
0005a0 a3 49 6c 9d 25 53 c2 3f b8 6a 9d 13 61 64 bc 3f
       0.14316244303388456 0.11090666512374525
0005b0 6e da 47 0c 5b 2d f4 bf 8c ed 60 bd cb d6 f8 3f
       -1.2610731582368788 1.5524403951265837
0005c0 19 91 13 e8 bf 9a 86 3f 62 ef 5a 7e 8a ec f6 3f
       0.01103734900466029 1.4327492652655214
0005d0 33 05 fd 55 53 cd ea 3f ca 1c 88 c0 6a c3 d3 3f
       0.8375641517124336 0.3088023071472433
0005e0 f1 5b 80 33 b5 0c 01 40 72 16 f8 97 26 03 e2 3f
       2.1312049888178923 0.5628846138140047
0005f0 66 41 1d 1d a0 40 e4 bf e6 0e f4 23 a0 40 ec 3f
       -0.6328888481748833 0.8828888609136498
000600 ae 0c 5d 9e 39 1a f9 bf b0 9f 6c f4 76 eb ee bf
       -1.5689026056359512 -0.9662432454979264
000610 0b 19 1a 82 19 14 bd 3f 9f 38 7c 4f 2e 15 f7 3f
       0.11358794618908889 1.4426711182491443
000620 c3 af 29 38 26 18 e3 bf 9a fd 97 35 c2 44 e1 bf
       -0.5966979119234498 -0.5396433874847617
000630 d5 e3 5d d5 c4 e3 f6 bf a7 95 8a d2 24 27 e8 bf
       -1.430607636894128 -0.7547783004890122
000640 80 23 4c 3a b8 db e3 3f 3b f0 41 14 19 67 d9 3f
       0.6205712450620098 0.39691760042456153
000650 72 a0 20 17 74 b0 fb 3f 39 06 cf f6 6b 02 b0 3f
       1.7305794623771615 0.06253695273974182
000660 cf 6f e9 a4 e5 59 f6 bf 07 f2 09 2c f1 20 ee 3f
       -1.3969475213880178 0.941521249783876
000670 1a 0b 00 12 2a e5 bd bf 10 3e bd b4 08 cb df 3f
       -0.11677802028138409 0.4967672123939062
000680 73 3a 8c 9e a8 86 c3 bf 4e 46 17 b6 50 62 f2 3f
       -0.15254695645895175 1.1490027535368372
000690 5e 62 3b bc 98 80 e1 3f 12 60 81 37 6b c0 eb 3f
       0.5469478298574122 0.86723862496274
0006a0 1b 7d f7 f4 05 f2 e9 bf 1f d9 fd fe 53 c0 de 3f
       -0.8107938560969247 0.4804887762214935
0006b0 13 17 9a d4 f0 87 ec bf e2 b4 15 1d 1b d8 fb bf
       -0.8915943291073937 -1.7402602325558338
0006c0 f1 5a 65 6a 10 bc f5 bf e9 d8 66 66 4c 3f d4 bf
       -1.358414092644747 -0.31636343002482065
0006d0 a6 bc 83 87 86 cb ea 3f 4a 73 07 74 ed ae db bf
       0.8373444220323065 -0.43255173045126993
0006e0 4d e0 10 3f 12 13 e5 bf 1a 92 dc ca 0b 98 fd bf
       -0.6585780364757824 -1.849620621135847
0006f0 d3 df 48 04 de 82 d2 bf 22 2f 31 42 c4 bb a5 3f
       -0.28923750322746605 0.042448170738309324
000700 7b 3d 80 2f ba ec ef bf 5d 2f 6f b5 72 79 03 c0
       -0.9976473739388177 -2.4343008207851384
000710 cb 00 54 ca d5 07 f6 3f a8 a1 69 1a f0 80 d0 bf
       1.3769128707354408 -0.25786974505765636
000720 f3 09 3d 5f e0 2a cb 3f cd cc 26 e0 23 c9 00 40
       0.21224598551096072 2.098212958511431
000730 46 73 77 52 c0 e0 f2 bf ba 4d 37 77 ba 23 fb bf
       -1.179870912680785 -1.6962227494121707
000740 00 f8 b2 37 ae 82 e9 bf b7 f6 57 a1 d0 bc e3 3f
       -0.7972022140381796 0.6167987014047956
000750 78 15 ad 23 97 0a e7 bf 79 12 dc 72 b8 59 e5 3f
       -0.7200427719878197 0.6672022097923921
000760 5c 8f 10 4d 7e 1a d1 bf c1 71 55 5d a9 01 d6 3f
       -0.26724202657554996 0.34385141481996234
000770 88 9f 1d 41 f0 a4 f8 bf f0 ed b4 b3 6c a2 d0 bf
       -1.5402681869108807 -0.2599136118840013
000780 d6 fa 39 13 9b a0 e4 3f 58 8b 7c ad fc 1c 00 c0
       0.6446051955716381 -2.0141538194306285
000790 81 79 64 53 f6 98 e0 3f 66 c4 51 bb b0 c4 f4 bf
       0.5186721447715145 -1.2980201069988424
0007a0 64 86 a2 56 b0 19 d1 bf 5e 0c c2 a1 1e 0d d1 3f
       -0.26719292126117566 0.2664257602375012
0007b0 1b ce 65 d0 37 dd bf bf 0a 1d a4 e1 2b ae e0 bf
       -0.12446926915964023 -0.5212611586620437
0007c0 7a 87 3a 15 f0 22 e0 bf 1b aa 34 17 1f f2 d3 3f
       -0.5042648710843729 0.3116529204004636
0007d0 73 a9 66 31 d0 b3 be 3f 7a 20 4b 58 1a 65 f1 3f
       0.11993123251037278 1.0871833275760125
0007e0 08 1d f0 73 d0 7c d4 3f 93 a1 2f 53 99 16 f1 3f
       0.3201180584150767 1.0680173158126294
0007f0 44 38 06 33 da 0a e0 3f 76 6b ff 78 9d bd fa 3f
       0.5013247486656458 1.6712927557443584

position_matrix f8 [1000, 32]
000000 4a 9b 88 c6 83 65 c2 3f 9d b8 af b2 71 54 f4 3f
       0.143722984256977 1.2706162433565062
000010 c7 02 74 64 fd c9 ca 3f 66 2a 1f d8 60 8e c5 3f
       0.20928923993053258 0.16840754082507486
000020 43 5b ed 3a c8 de fe 3f 6e dc 3f 5d 01 d9 f1 bf
       1.92939017313411 -1.1154798166806148
000030 6e 05 32 9c c9 db a2 3f 58 e5 59 72 f8 44 df bf
       0.036833095852680894 -0.48858462493043
000040 2e 80 c1 3f be bf fc bf b7 9d 95 24 99 cb dc 3f
       -1.7968122950042118 0.44992664883326533
000050 f5 a0 20 94 72 43 ef bf e9 33 4b f9 b5 7b e3 bf
       -0.9769833462824226 -0.6088514203089491
000060 fb f0 11 49 05 02 f6 3f 74 39 1f dc 7a 81 dd bf
       1.3754933218288545 -0.4610278272274606
000070 0c 59 56 d6 20 a5 f3 3f d0 92 55 db 4d 26 e8 bf
       1.2278145191717753 -0.7546757968780984
000080 f5 b5 cb 20 98 95 ee 3f b1 1c 04 ce 5c ea d3 bf
       0.9557610168973826 -0.31117935293918736
000090 90 01 7a a7 62 d8 df 3f d6 a7 f3 44 fe b4 e5 3f
       0.49758211474547753 0.6783439013208816
0000a0 9e f6 97 59 0d 92 f8 3f a5 51 e4 0f f9 8d 01 40
       1.5356572627783076 2.1943227044632345
0000b0 f3 06 19 e2 cf a2 da 3f 12 2b 8c 0c 31 e7 fe 3f
       0.4161872585283241 1.9314432611597039
0000c0 ce d0 fb 98 60 d3 cc 3f 86 6f 28 33 49 36 d3 bf
       0.22520072431473753 -0.3001883506383297
0000d0 db 69 b5 fb db 4e bc bf db 35 a7 3f 14 91 e8 3f
       -0.11057829756956698 0.767709850618924
0000e0 90 c8 d6 b6 51 a9 bb bf 2e 7c 2d 5c f7 0a f3 bf
       -0.10805235589831086 -1.1901773071947548
0000f0 12 70 57 70 a8 02 d4 bf e0 21 02 ec 10 a5 b6 3f
       -0.3126622292600142 0.08845620881960015
000100 e4 a3 28 37 9f e2 f3 bf 3a 10 f1 5b bd dd dd 3f
       -1.2428276209486677 0.46665891627003797
000110 c7 6c f8 e9 35 87 0b c0 b6 f0 be a5 a1 63 e2 3f
       -3.4410208014429347 0.5746620404456937
000120 7e 98 27 73 51 18 ff bf 6e e4 05 63 15 bb c6 3f
       -1.943437051604206 0.17758433661564105
000130 9f bd de 2d 0e ae de 3f 22 90 3c 07 6b 76 b0 bf
       0.47937349776744925 -0.06430691649126222
000140 e8 12 d3 0c bf 5e cb 3f 7f 51 ac ce bf f1 f0 bf
       0.21382892728993075 -1.059020812336797
000150 8d 86 61 b4 28 89 d6 3f 2a b9 82 b5 97 85 f6 3f
       0.3521215211422735 1.4076153841265957
000160 81 19 34 24 5d e9 f7 3f 13 ee 6f fe 1e e7 e0 bf
       1.4944735922050258 -0.5282130212285118
000170 88 0e 38 be dc d2 e9 bf cf 4f 40 e6 ca ce ea bf
       -0.8069900241102497 -0.8377432343572709
000180 5d dc c9 7b 52 91 f0 bf 55 44 8b 39 c6 65 f0 3f
       -1.0354790530671132 1.024847245007796
000190 19 63 d7 1f ed 82 ea 3f 5d a0 2f 12 5c a3 e0 bf
       0.8284822103406412 -0.5199413638301952
0001a0 2b 35 f1 7e b6 0a ca bf 66 6f ee d2 5b e1 ee bf
       -0.20345193098402467 -0.9650096053842219
0001b0 7e 2b 9b 1a d2 69 ea bf 3e 19 b5 7b d3 12 d6 bf
       -0.8254175681735061 -0.3448990543442
0001c0 e7 11 f1 d1 0b 27 ee 3f 73 66 d9 60 20 c0 e3 bf
       0.942266378443091 -0.6172029391847914
0001d0 be 35 43 cb 31 07 d5 bf e8 b2 ed 05 3a ad d5 3f
       -0.3285641179071169 0.33869791583019415
0001e0 3d c0 31 dd 92 46 d8 bf 40 d4 ad 6a 3a af d1 bf
       -0.37930747605333065 -0.2763200799739174
0001f0 46 1e ba 3e 17 f2 cf bf b4 c0 a5 40 bf 51 e4 3f
       -0.24957552492945662 0.6349788916250163
000200 8b a7 60 1a 12 86 e2 bf 3b 9f 64 fe 51 b8 f0 bf
       -0.5788660540758753 -1.0450000703076074
000210 72 ba bf c0 de 9c dc bf 99 17 52 07 16 db d6 3f
       -0.4470745928109984 0.35712195124539786
000220 8a 63 b6 42 a5 f6 f2 bf 31 bd d1 a8 a4 63 d5 bf
       -1.1852161985354734 -0.33420673834094133
000230 ac d6 d7 5a 66 2e f4 bf 39 5a 8f 28 70 39 c8 3f
       -1.2613280819472648 0.18925287228076274
000240 8a a4 b9 53 e6 e2 da 3f 62 bc d6 59 1c f0 e5 bf
       0.4200988595608314 -0.6855603937782571
000250 9f 96 26 32 88 84 f3 bf de 31 82 c7 11 39 d3 3f
       -1.2198564490330808 0.300358242828933
000260 48 21 99 cc 54 16 f0 bf 6e d6 1e 84 1c 81 d7 bf
       -1.0054519645801339 -0.3672553339232313
000270 34 b5 b2 15 01 4d e3 bf 93 8b 3d 51 ef da d3 bf
       -0.6031499313154769 -0.310237721763934
000280 4f 97 1f 32 9e 38 e3 bf a1 bd 28 9b ec 08 bc bf
       -0.6006613711331087 -0.10951117313447024
000290 06 08 48 e8 56 72 e7 3f 31 4d d2 ea fe 0b fe 3f
       0.7327074562783771 1.877928654929587
0002a0 0e 43 a2 c0 1b c7 d2 bf a6 37 c4 52 e1 b6 e1 3f
       -0.29340261279962554 0.5535742394001673
0002b0 a9 12 83 09 09 30 d7 bf 03 cc 4f 19 04 2e f7 3f
       -0.3623068421259555 1.4487343777407211
0002c0 30 c6 5f f9 12 d4 fe 3f 81 64 f3 b5 6a 81 f0 3f
       1.9267759076286772 1.0315959079219115
0002d0 b3 f3 2d 91 ea 16 a1 bf 72 aa a8 ab 5b 95 d2 3f
       -0.03337796232424441 0.2903660942417111
0002e0 93 ff 51 e4 3c 70 cf bf bf e9 04 e9 7e cb f5 3f
       -0.24561272762730066 1.3621815779030013
0002f0 e8 8a a5 19 2a 1b df 3f 1b 6d c0 f5 9a 9a ca bf
       0.4860329866843771 -0.20784317969887742
000300 4d d7 e1 05 3c 42 d9 bf 93 34 06 26 48 bd e9 3f
       -0.3946676309054638 0.8043556921635563
000310 4a fe 12 83 e6 d5 d1 bf c3 d4 87 49 aa 5b d1 3f
       -0.2786804466267979 0.2712197988578959
000320 e0 fa 06 69 59 11 ea 3f ea db d7 d5 de 5a fe 3f
       0.8146178294481068 1.8971851685762382
000330 b5 60 ef 35 78 ec b4 3f a2 1b a1 9a 5e 80 e9 3f
       0.08173323933385997 0.7969201107124386
000340 76 be 09 f7 36 93 fa bf b3 71 0b bc 3c 7a f2 3f
       -1.6609410905765833 1.1548430772300946
000350 4d d2 3f f7 c0 6c f6 bf bd fa 9c 84 c0 49 f2 3f
       -1.4015512140441786 1.143005865116421
000360 2d 44 98 ff 0a e0 e1 bf fd 11 76 76 e6 1b f4 3f
       -0.5585989944539783 1.2568115832701772
000370 fe 85 a3 10 51 6e d1 bf 4c 59 73 4f 30 59 02 40
       -0.2723581945884631 2.2935491759373345
000380 ef f3 cf 62 eb a8 e3 3f ee 31 d8 ec 97 37 e1 bf
       0.6143700532844586 -0.5380363107556698
000390 1c db 3e 3f cf 99 f0 bf 57 04 82 61 31 67 f0 bf
       -1.0375511618164586 -1.0251935776616585
0003a0 ab f3 28 3f 82 e5 e8 bf 06 69 74 46 7b 76 c1 3f
       -0.7780162080376746 0.13642826976940386
0003b0 94 2d 36 8b c2 59 fb bf 06 49 ca 54 6f 4c e9 3f
       -1.7094140470461285 0.790580430608572
0003c0 12 b3 55 74 60 e2 8b 3f 85 47 b7 db 91 95 ea 3f
       0.013615373182540167 0.8307580272032601
0003d0 e2 b9 b0 07 43 73 e4 3f 6c c1 52 60 3b 1b c7 3f
       0.6390700483514673 0.18051855281147355
0003e0 40 15 c7 e3 5a f1 e7 3f e7 61 14 d0 d7 6e e1 bf
       0.7482122849257067 -0.5447806419425064
0003f0 4a 4b c1 c1 0a 10 d5 3f 91 49 54 47 70 e4 d2 bf
       0.32910412713424775 -0.29519278493639783
000400 9f 6b ab ff 85 65 de bf 42 48 8a 38 a0 db e6 3f
       -0.4749464985631508 0.7143097976970767
000410 70 18 63 0a 62 ce e2 3f 3d 6c a7 85 43 6a f6 bf
       0.5876932337639698 -1.4009433003291314
000420 0f 12 14 b9 f4 2d e7 3f 5c 1f 70 8d c5 d7 f1 3f
       0.7243598570644866 1.1151786351128612
000430 3f d8 dd a0 a1 7e e6 3f a3 6f 14 2b bd ea f6 3f
       0.7029579297948273 1.4323093111806677
000440 0b d9 25 df 15 27 de bf bb dc 44 72 36 5f ed bf
       -0.47113558570653485 -0.9178726417366286
000450 36 a1 18 c5 9e 6d e4 3f d9 27 79 a6 c2 ec d9 bf
       0.6383813714537954 -0.4050757051196548
000460 ac 91 43 03 f5 28 f5 bf e8 51 f6 1c af c6 d7 3f
       -1.3224992873666492 0.3715017111619816
000470 2a 48 c3 0e 28 1a ca bf 25 e1 a2 91 96 ca e1 bf
       -0.20392323227730574 -0.5559799999673812
000480 e6 37 1b b5 cd 26 ee bf be bf 2f dc 70 75 ae 3f
       -0.9422367608292432 0.0594897526533482
000490 53 5b b7 62 7d 69 d5 3f 13 73 50 54 37 ec fe 3f
       0.3345635856652979 1.9326699536824818
0004a0 e7 1d 38 bd 7f 09 f8 bf 59 b5 7a 38 8a e5 e9 bf
       -1.502319087159657 -0.8092700102912814
0004b0 79 e8 53 bb 7d 89 fa 3f 30 72 b9 ff 94 fa eb 3f
       1.65856717276486 0.8743386263482247
0004c0 c6 9c 3c 45 27 66 00 40 28 6e 4d 5d ce d2 f2 3f
       2.049879589950794 1.1764663357379366
0004d0 3e 60 5e d3 df 54 d4 3f bb 17 8b e1 ac ec c7 bf
       0.3176803173205406 -0.18691025746210052
0004e0 c7 52 1b 89 e5 a2 c8 3f f3 c0 c1 21 be df e2 3f
       0.19247121042885437 0.5898123416245923
0004f0 e9 a4 c0 f4 a1 b6 f0 bf e8 fe 03 ae df 00 f4 3f
       -1.044588047089116 1.250213317631216
000500 79 0b ab a6 9f bb bc 3f a4 c3 c9 66 92 85 db bf
       0.11223790949865799 -0.4300275806227154
000510 e8 ca a6 db fa e5 b8 3f d2 82 b1 b7 c3 f3 e8 3f
       0.0972592149981143 0.7797564113389746
000520 37 e5 dd 23 b0 38 da bf 90 af a2 87 c5 24 d5 3f
       -0.40970996382346264 0.33036936040547804
000530 db 82 19 49 47 14 f5 bf 70 05 c0 4c 06 d5 de 3f
       -1.3174507956938928 0.4817519902718095
000540 08 41 91 bc 01 ac ea 3f 8a c9 39 57 e0 75 f4 bf
       0.8334969218213084 -1.2787784011130463
000550 1e 08 b5 17 64 fd fb 3f ac ab 47 66 ce 64 cb bf
       1.7493630338726756 -0.21401386255396682
000560 22 62 7e 8d 63 a4 e7 3f 4d ec 43 e3 84 4a f5 3f
       0.7388170016811879 1.3306931378890738
000570 e5 0e ac e0 7e 7d f9 bf 0f 6a 12 5c 9f 93 f0 3f
       -1.5931385780576701 1.0360406490859793
000580 9e f5 a2 04 5b 49 f3 bf 98 87 10 49 b0 54 00 c0
       -1.2054090672603262 -2.041351862732835
000590 10 ee 03 e8 b6 1b e6 bf b6 58 55 94 bb c9 c1 bf
       -0.6908831149625616 -0.13896889441338595
0005a0 28 e5 e2 62 e4 ed ce bf a9 27 79 86 93 0e f7 bf
       -0.2416348917811686 -1.4410586598264479
0005b0 62 2a 22 39 90 82 03 40 0c 11 e4 ad 18 ad ea bf
       2.4387516463805676 -0.8336299320513105
0005c0 85 de 46 db a1 e9 92 bf 82 52 81 6b ba f3 be bf
       -0.01846936131343437 -0.12090649723661254
0005d0 b7 bc 5b 42 16 88 f2 bf 71 fd 2e 8e 41 48 d0 3f
       -1.1582243530390721 0.25441016087639584
0005e0 cd d5 c3 23 0c b8 f8 3f ef c9 63 18 80 c6 c5 bf
       1.544933452326734 -0.17012025061519817
0005f0 92 ed 61 7b dd 6b 91 bf 1b 1b d5 7a 9a 42 ca 3f
       -0.01701303544585426 0.2051575755851552
000600 0b 1d 00 83 19 30 07 c0 31 9a 68 c1 db 3b ee 3f
       -2.8984861597451803 0.9448069360267423
000610 0d 67 69 7d 6b d1 f3 3f 30 13 34 9c 90 d5 d1 3f
       1.2386279009719516 0.27865996603240983
000620 bb 1d dc a6 7e fa f9 bf f5 9e f0 92 2c 1a 8e bf
       -1.623655940815168 -0.014698360666514068
000630 75 83 60 94 6e 68 b5 bf 30 21 37 c4 66 e6 fb 3f
       -0.08362475512013907 1.7437503494894138
000640 ed 21 fc 31 2e 48 f4 3f 02 00 7d 22 e0 c4 07 40
       1.2676221802267904 2.97113062805147
000650 50 88 74 81 95 db 01 40 c3 96 d9 f6 68 10 e6 bf
       2.2322187532127273 -0.6895031758583275
000660 41 73 fa b0 f1 ea f0 3f 74 36 7c 1a 25 8e dc 3f
       1.0573594010558767 0.4461758383411969
000670 66 0d d4 65 76 db d0 bf 65 70 f0 36 34 c8 f7 3f
       -0.26339492744610593 1.4863779207289778
000680 7d dc cb d4 8e c3 f3 bf 1e 26 de 29 cd 92 f6 bf
       -1.235243636356045 -1.4108401904544574
000690 8d de 58 49 2d 8c cb bf f8 44 84 93 8f 96 ef 3f
       -0.21521535951045614 0.9871290093598466
0006a0 e3 ea 47 79 a4 1b 02 40 67 64 0c 29 fe 69 b3 3f
       2.263497302539109 0.07583607198866248
0006b0 b1 4d 75 c3 4f 4e f4 3f 0a 9a 17 b5 c0 02 fb bf
       1.2691190371595946 -1.6881720613397442
0006c0 35 78 fc 33 ff a6 98 bf 6b b4 5b 6a 3b b4 dd bf
       -0.02407454256819382 -0.46412549387497987
0006d0 75 91 9a 2a 76 81 b9 bf 15 ee 12 ad e1 2d e2 bf
       -0.09963167705661198 -0.5681007747984405
0006e0 56 b0 18 59 8d 92 f1 3f 61 8e 87 bb c0 20 df 3f
       1.0982793312387193 0.4863740760176594
0006f0 69 b9 34 51 88 57 e4 bf 7d 8b f9 52 73 d5 e6 bf
       -0.6356851182988922 -0.7135559673882735
000700 50 9d 49 33 d6 36 ea bf 21 c5 68 05 ad 72 e4 bf
       -0.8191939355573741 -0.6389985185288972
000710 bb f7 11 6f 3e 79 d7 3f a6 22 04 a9 1b 08 fd bf
       0.3667751393003262 -1.8144795038407806
000720 03 36 f5 d5 02 8d eb 3f 69 ea 62 b0 bd e7 df bf
       0.8609632662643779 -0.4985193464778264
000730 30 56 99 7f 9d 91 fc 3f ea e0 cc bf b7 b0 ee bf
       1.785550592835886 -0.9590719934558625
000740 b9 8b 88 83 52 56 ee 3f ca 23 99 e1 20 f4 03 40
       0.9480373925219886 2.494203340993839
000750 19 af 92 f7 6f 59 d5 bf 73 b7 9a e2 19 85 03 c0
       -0.3335838239388394 -2.439990778299881
000760 98 8b 05 c0 e2 8e f3 3f 76 30 af 18 d6 e4 f1 3f
       1.2223842144819397 1.118368240760018
000770 1b 89 4e 62 d5 d9 e7 3f 2e 23 b4 21 c8 cc f8 3f
       0.7453410072378434 1.5499955479192056
000780 c8 1c 11 de 73 f5 b5 3f 80 e7 97 a6 96 03 fd 3f
       0.08577655955842822 1.813376093631149
000790 70 b5 88 ea a5 d0 f1 3f 11 2b 8e 65 7f 53 e3 bf
       1.1134394799695109 -0.6039425834181619
0007a0 c0 aa 17 3b 45 28 dc bf ad 63 21 40 27 4f e9 bf
       -0.4399579121660899 -0.790912270788899
0007b0 e0 75 1b 4c 78 25 cf bf fd e2 ce 39 f0 3c f3 3f
       -0.2433309909455792 1.2023775346880818
0007c0 e0 78 10 f2 5f fa f9 bf 76 bf 70 fd 22 fa e9 3f
       -1.6236266570700124 0.8117842626579506
0007d0 7c 06 2d 65 75 df e8 bf a3 32 1b 1d 9f 6a e8 bf
       -0.7772776580897722 -0.7630153244477537
0007e0 f0 2b bf f1 31 b2 f0 bf 06 08 4e e1 28 26 ff bf
       -1.0435046618683792 -1.9468163300484789
0007f0 74 74 88 bc 28 57 eb 3f f0 b0 c4 e0 5f 7b 03 c0
       0.8543895418439562 -2.435241466524637

transform.0.W1 f8 [32, 128]
000000 41 aa 25 1c 5b 1b dc 3f dd 9f 99 e5 d4 fb c6 bf
       0.439169671523505 -0.17956029139463583
000010 25 c8 8f 59 21 a0 a4 3f f9 97 93 b0 d3 c5 b1 bf
       0.040284197027986836 -0.06942484913778903
000020 05 77 c6 0f 76 4f d8 bf bd 7e d9 b1 de 19 d2 3f
       -0.3798499254279338 0.2828289734661487
000030 e7 34 b5 55 94 a7 c2 3f 43 e3 58 02 90 20 df bf
       0.1457391184325509 -0.4863624594614075
000040 64 5e 35 de 4b 4f db 3f 6f 43 3c cc 55 d1 d7 3f
       0.42671486568494843 0.37215180344451587
000050 6b ef 8c 73 3a e2 d3 bf 18 49 a0 37 58 b7 d9 3f
       -0.31068288120490334 0.4018154662345679
000060 b9 68 07 88 f3 20 9d 3f cf 8d 09 08 ed 84 ce bf
       0.028446011712596617 -0.23843157665679235
000070 ee 64 e0 05 e8 78 99 bf 28 62 53 2c b1 cd b7 3f
       -0.024875283583331624 0.09298236210032285
000080 3d c5 20 5e c0 93 cc 3f 12 01 3e ec 14 fd 9a 3f
       0.22325901599973888 0.026356055182533096
000090 d8 52 43 1e a5 b8 b3 3f 5d f1 bd f2 10 5d b2 bf
       0.07703620900003771 -0.07173257757489666
0000a0 22 37 f0 15 b0 86 c8 3f 9d a6 29 9c a5 a6 d2 bf
       0.19161034651954717 -0.29142132044089825
0000b0 05 85 cc 5b 80 b3 c9 3f 8d 23 3d 98 69 3a d2 bf
       0.20079044802063364 -0.2848152147967589
0000c0 9f e8 b5 ed 4b 91 d3 3f a6 b8 bc ee 98 2e 6f 3f
       0.3057432004349127 0.0038063990558817205
0000d0 60 4d 3b 97 df ef d0 3f 61 44 6b ec 28 53 d8 bf
       0.26464071053233873 -0.3800756748942771
0000e0 d8 34 e4 46 d9 42 d6 bf 97 78 7f 43 94 b0 dd bf
       -0.3478301231669554 -0.4639025363120565
0000f0 2e 96 53 cb bd 10 c3 bf 40 8d 82 8d 0f 13 bc bf
       -0.14894840648700963 -0.10966584400971602
000100 90 16 60 0d fd 1d c5 bf e7 6a 96 f7 fc 84 d5 bf
       -0.16497767594426138 -0.3362419526908255
000110 33 a8 fa 62 01 91 d1 3f 96 65 40 0a 5c 6d 99 3f
       0.27447542825632637 0.02483123600550171
000120 e3 6a 05 f6 43 36 88 3f 13 bc 8d db 8f 07 af 3f
       0.011822253175230063 0.060604568053229134
000130 b2 8e fd cc 16 14 df 3f 34 1a af 61 e4 46 ce bf
       0.4856011392459819 -0.23653845567442178
000140 93 ef 3f 3c 1a ee c7 bf 0e 32 d0 b5 77 d5 a5 3f
       -0.18695381109125417 0.04264425367737
000150 40 46 8e c5 d9 b9 80 3f 34 03 51 e2 e0 a7 ab 3f
       0.008166982022689173 0.05401518595363655
000160 04 28 03 38 29 e7 d4 bf 53 48 c8 d5 1a 0b d0 bf
       -0.32660894842103994 -0.2506777847021386
000170 a0 b7 08 f9 b8 bc d3 bf 80 01 63 38 b6 85 aa bf
       -0.30839371032458907 -0.051801390059611485
000180 f6 58 9d c5 cb b5 cd bf 5c 53 c1 b1 8f 19 c9 bf
       -0.23211047314789085 -0.19609256915523587
000190 fd db 1b 57 0d 27 b6 3f 46 92 2a 50 d2 a2 d5 3f
       0.08653338791542349 0.3380628378747911
0001a0 92 5d 31 86 eb d7 dd 3f 8f c6 21 fe d3 53 cc 3f
       0.46630371193665454 0.22130823048387468
0001b0 cc 3c c7 5b 1a 30 d5 bf 42 e2 79 bf 2d ec 98 bf
       -0.3310609718582327 -0.02433845025231763
0001c0 58 d2 d7 c9 20 ea b6 bf 8a fa f5 31 1a 52 ca 3f
       -0.08951001098450584 0.205630564112614
0001d0 84 bf bb 2a 72 15 c3 bf ac 22 ec ce 54 5b ca 3f
       -0.14909197889891967 0.2059122095454503
0001e0 e3 4e 27 e6 32 a7 95 bf 1c 32 cf c1 7b df da bf
       -0.021145625398118716 -0.4198903458280101
0001f0 c9 0a 7a 71 a0 f3 b1 3f 93 9d 67 7d ba eb d2 3f
       0.07012369890621097 0.2956377243667358
000200 d8 ad d0 d7 f5 79 c1 3f 72 ba be 44 0c 95 de 3f
       0.13653443372582674 0.4778471633279998
000210 47 29 6e 4a 4b a1 c8 bf 93 6c 34 15 c5 d2 d4 3f
       -0.1924223054341587 0.3253643710210749
000220 7a c2 e4 ac 02 d3 cc 3f d3 9f fa bb dd d7 cc bf
       0.22518952791280694 -0.22533771208440942
000230 87 22 99 dd 49 c0 bf 3f 8c cb b6 53 30 ae de 3f
       0.1240278402339162 0.4793816392440753
000240 1f 70 47 0c de b1 c3 3f 33 a7 88 54 40 97 d2 bf
       0.15386558150828564 -0.29048164611104993
000250 a6 ea 2e 01 8f 5d 94 3f d2 84 33 d4 2e 90 ba 3f
       0.019888147780629105 0.10376255684561222
000260 6c 27 bd 23 50 4a bd 3f 7e 49 94 a3 12 57 90 3f
       0.11441517708331411 0.01595715640457617
000270 a2 ee 84 32 d7 a5 df bf a9 81 0f e1 85 01 dd bf
       -0.49449710782548995 -0.45321795443126206
000280 82 75 a7 34 e5 4b d6 bf d5 12 49 25 c9 c7 d6 3f
       -0.3483822836113505 0.35594395295292475
000290 65 90 ec 8c cf 8c c8 3f f7 32 3a 66 d0 19 d9 bf
       0.19179720288332472 -0.39220056517733276
0002a0 be c0 f7 82 ce f1 b0 3f c4 34 d2 ab d1 f7 c1 bf
       0.06618967721419985 -0.14037533654883394
0002b0 ed 28 ec dc f8 bc c4 3f cf d6 74 d0 14 06 e2 bf
       0.1620169714663641 -0.5632423468984714
0002c0 7a 97 ab 63 10 ee db bf 0f 19 91 e4 fb f3 cc bf
       -0.4364052747099475 -0.22619579945075727
0002d0 b7 94 e9 f1 ca d9 c0 bf 26 c9 f0 d4 99 fa ac bf
       -0.1316465073788657 -0.05659943317768272
0002e0 69 99 f0 d8 13 b5 a0 bf 13 39 89 a8 4f a9 c0 3f
       -0.032631511909403006 0.13016696671770286
0002f0 2a 17 a8 58 a7 75 ba 3f e1 52 d8 20 33 1b a5 3f
       0.10335775293796404 0.04122314239444847
000300 53 a7 81 1f 7c 37 cd 3f cf 69 23 6f 68 f1 ad 3f
       0.22825576342011775 0.058482421461764404
000310 44 18 8e 16 bc 7e c2 bf 8c 87 f2 f7 4d 70 c8 3f
       -0.14449263669320278 0.19092726332479193
000320 99 1a 6c 8b 50 ad ab 3f 8e d1 be 7b 3f 94 a0 3f
       0.05405666067058696 0.03238104234279425
000330 f1 a1 f2 7b 30 45 dc bf 2a e9 26 14 a9 8d ca 3f
       -0.44172298530841575 0.20744813426956316
000340 39 d8 26 37 f4 00 a3 bf 73 56 a6 a3 0b ee bc 3f
       -0.037116653187169786 0.1130072855506457
000350 db 34 6d 5d 7f 43 e6 3f 98 df 9e 28 af b1 c4 bf
       0.6957394432771723 -0.16167249186923693
000360 68 4e ce 19 50 83 d0 bf 14 72 ad ac 28 79 d6 bf
       -0.25801470298868034 -0.3511449514678884
000370 92 00 be 85 71 d4 a0 3f 3b 11 75 50 ac 7f af bf
       0.03287081487269562 -0.06152094347138123
000380 c5 28 c2 1a 28 1a cc bf 01 e0 e5 92 01 ab d8 bf
       -0.21954823786319913 -0.38543738694670543
000390 1a 85 7b c1 93 7a d4 bf 32 a4 63 95 aa b0 d2 bf
       -0.3199815167882477 -0.29203285778800414
0003a0 28 64 e4 65 48 74 ba 3f b8 d1 bf 0a 88 f5 c9 3f
       0.10333683478928946 0.2028055241095339
0003b0 74 3f 22 fc 43 6c bf 3f e3 42 47 f5 09 87 d1 bf
       0.1227457514344204 -0.2738671202942397
0003c0 84 48 9f 90 da 6f c3 3f d2 9b 80 54 dd e2 c7 bf
       0.151851006141957 -0.18661085725872667
0003d0 b3 e5 ce e9 be 6d cc 3f ce 2e bf 2c fb 6b 7e bf
       0.22209917465606352 -0.0074271976008721385
0003e0 32 b9 37 42 4b 2e d1 bf e2 b3 ea 87 94 0d 9a 3f
       -0.26845056025094316 0.025442429347709246
0003f0 d2 fd 9f af 71 16 c6 bf 69 00 0a 42 0b 4a c6 bf
       -0.17255993915021733 -0.17413464283527283
000400 90 9d 10 8f 96 1e b4 3f 89 3e e5 5d 76 79 be 3f
       0.07859173767848504 0.11904086868639231
000410 79 af f6 81 41 2f ad 3f 0e 34 90 c5 da 74 ca bf
       0.057001158823680016 -0.20669111868520001
000420 bb 2d 81 75 26 f9 d1 bf fd 99 00 7d cf 2e b6 bf
       -0.2808319232469462 -0.08665177156272104
000430 6d b1 e5 61 eb 72 c2 3f b2 b9 44 29 80 f0 c6 3f
       0.14413206367624856 0.179214496756186
000440 cc db c3 72 e4 ae a4 3f 8c 64 86 79 08 0f b0 3f
       0.040396822938354754 0.06272938696783309
000450 91 e3 de 49 af 2a d4 3f 93 9e 90 c0 1e d2 89 3f
       0.31510526861125593 0.012607803584685306
000460 1b 89 81 31 92 b3 b1 3f 17 66 4d 26 b6 c6 c0 3f
       0.06914628704683816 0.13106419439536474
000470 d5 7b 4d cb 87 24 75 bf 46 77 e4 14 69 ec c4 3f
       -0.005161791273024148 0.16346467514170565
000480 90 62 81 07 1a aa ca 3f e3 cf 5a f6 18 70 c2 3f
       0.2083160912177573 0.14404594449081207
000490 15 fd df c5 53 42 ba bf ff 99 77 01 6d 27 c0 bf
       -0.1025745733349946 -0.12620318004265127
0004a0 eb a5 6a 69 7c 6a e9 bf 81 4c f0 0d 68 9c d0 bf
       -0.794248777286325 -0.25954629288862213
0004b0 d7 62 0e e4 96 2a b7 bf a6 0f b4 05 73 69 c6 3f
       -0.09049361293581214 0.17509305742725906
0004c0 11 a5 3a 34 66 76 ca bf 7d dd 93 0d da 2a d8 bf
       -0.20673825788734537 -0.37761546445786803
0004d0 1c 21 83 23 9c ca b1 bf 58 98 ff b1 a1 44 a6 bf
       -0.06949783198354392 -0.043492367723772574
0004e0 3e 8b 49 b6 cb 1f d9 3f da ac ff d9 a7 03 b0 bf
       0.3925656585835674 -0.0625557810996499
0004f0 66 68 93 e5 9a 76 c5 bf 6c 30 c0 e8 72 27 c0 bf
       -0.16768203935390885 -0.12620388378889247
000500 4a 4e 26 68 ae 69 d5 bf d7 b3 dd 7c cd d7 c0 bf
       -0.3345752732359172 -0.13158577534650703
000510 90 d8 86 0b ae 57 cd bf 90 a5 60 3a b7 ea b0 3f
       -0.22923827708081435 0.06608147788269592
000520 c6 8d 47 b0 6f d4 b1 bf 8b 06 09 4b 82 06 c4 3f
       -0.06964777044009116 0.15644863761740554
000530 b3 4f a4 b4 42 af 9c 3f 22 9f 81 2d 80 06 e7 bf
       0.028012316012862203 -0.7195435417934031
000540 5d 81 3c fd 81 ba c5 3f fa 3f ef d6 e2 e9 ce bf
       0.16975426545196629 -0.241512637089272
000550 9d c7 83 6b da f0 e1 bf 1b f2 5c c2 6f 90 b2 3f
       -0.560651025762343 0.07251642699424858
000560 64 a1 2a b2 cd 10 be 3f d6 73 5d b7 ce e5 8b bf
       0.11744390105980568 -0.01362191674314232
000570 05 b7 76 a7 39 9a e2 bf c2 d7 16 07 c8 37 c4 3f
       -0.5813263197685222 0.15795231195596499
000580 cb 12 78 ad 4a 48 cf 3f 6f d1 dd 3c 95 75 d2 3f
       0.24439366789024172 0.28842669433586016
000590 e0 62 9a c9 97 0e ce 3f e1 48 d1 9b d4 2f ad bf
       0.23482034057521783 -0.05700554277486148
0005a0 93 f5 ad a1 dd ea ca bf f6 7a d2 ef 4c 3f cd 3f
       -0.21029253382213806 0.22849427900379
0005b0 97 8b 0e f3 2e eb db bf a9 19 06 68 bf 84 cc 3f
       -0.4362294553376897 0.22280113772667434
0005c0 20 3b 16 fe e3 86 c0 bf ad 66 88 19 3a 05 d2 bf
       -0.12911653429588288 -0.2815690278381265
0005d0 f1 f5 a0 fb 03 ef e1 3f 2c 1f 64 4c 2d 7a d8 3f
       0.5604267038940504 0.3824570890433161
0005e0 0c 40 7f 21 4b f7 ce 3f 21 52 01 35 81 56 c4 bf
       0.24192179809188052 -0.15888991439955283
0005f0 af 7a 0e f8 37 fd e3 bf d7 36 91 89 fe 9f d1 bf
       -0.6246604771475485 -0.27539027628232077
000600 22 99 c5 1d 57 af c3 3f 3a 05 b3 ba 62 27 c8 3f
       0.15378846124367224 0.18870195499588666
000610 ce c3 66 d3 d8 43 95 bf 3a 48 49 16 f8 76 b3 3f
       -0.020766628172797223 0.07603407425020317
000620 7f 34 5f 99 ae b2 9d bf c3 46 99 ee 72 d0 dc 3f
       -0.029001930342748224 0.4502227144304067
000630 0a f1 78 0e ad 2b c0 bf 73 1d 57 51 d2 a7 cb 3f
       -0.12633288580571672 0.21605900737470626
000640 e1 b5 4e 62 f2 9e ae 3f 53 0f 3b 6b 0e 68 d7 3f
       0.059806417942450237 0.3657260939764814
000650 1d 03 8d 9e 52 25 a5 bf 1f e3 01 65 f6 10 c3 bf
       -0.041300374845837796 -0.1489551537704523
000660 08 8c 82 e7 95 aa d1 3f d8 3e 0e bc 6d 83 d3 3f
       0.2760367165412281 0.30489676823434086
000670 9d fd 72 c8 40 4f b9 bf d2 0d fd d9 52 78 ca 3f
       -0.09886555570391527 0.20679698604554503
000680 af ca 65 d4 89 d0 d7 3f 0a d4 be 77 48 bf c6 3f
       0.3721031736560389 0.17771249625153046
000690 8f 64 47 59 c0 00 c5 3f 34 99 86 60 2f 23 da 3f
       0.16408542975731108 0.40839752603860124
0006a0 02 04 c1 93 f1 fe af bf ab 6e b0 75 46 da c8 3f
       -0.0624919407714586 0.19416123148481765
0006b0 6c 73 9d 4a 8a da b5 3f d4 67 98 cc b5 b7 d8 bf
       0.08536590882927236 -0.38621277790082087
0006c0 26 2b 6c 80 bb 1b ca bf 63 34 92 ca 37 ce da 3f
       -0.20397132654792322 0.4188365438684
0006d0 44 84 09 88 fa 9b c9 bf c2 b5 11 1d 6f 58 cb 3f
       -0.20007259027900848 0.21363629264253176
0006e0 6b 12 f0 55 a0 9a e4 bf 1c 71 ca 8d dd 63 92 bf
       -0.6438752821419035 -0.017959081439230848
0006f0 be 78 f2 48 46 cf ca bf 08 ed 07 87 fd 28 cc 3f
       -0.2094505172908096 0.22000092595394727
000700 33 41 b9 93 8d 6d d0 3f 84 88 b7 b7 e8 5e d3 3f
       0.2566865866292744 0.30266778889757284
000710 89 ec 51 55 de cb d3 3f c1 39 b8 c9 50 a1 dd 3f
       0.30931814510376704 0.46297092150862446
000720 6e 94 2c 01 0a d6 c0 bf 25 d4 79 74 b4 44 a4 3f
       -0.13153195435839699 0.03958667680573339
000730 1c 23 d5 31 9d 37 c8 bf 1c cf 0f ac 1e 96 d6 bf
       -0.18919720586043176 -0.35291258623986876
000740 3b 2f 46 12 b0 19 c8 3f e3 d8 cf ba ba 3d 55 3f
       0.18828392879765396 0.0012964557201918185
000750 ba 56 0f 36 3e 13 d2 bf 5c d7 e4 bb 65 13 c1 3f
       -0.28242450026787547 0.13340446161754016
000760 2d e8 89 7a b8 53 bc 3f 4c 9a 49 04 cc a0 c0 bf
       0.11065247527759033 -0.12990713319159608
000770 f6 73 01 9f 4c 2d cc 3f 28 2a db 66 f0 93 da bf
       0.22013242496441848 -0.4152794842199534
000780 3b fc 8b 06 74 da c0 bf 6e e4 aa 7f f6 cd d5 bf
       -0.13166666335743735 -0.34069597690137854
000790 38 0c b3 32 de 62 d2 3f b8 fd 3f e1 68 bb b8 bf
       0.2872844214545611 -0.09660964488283852
0007a0 34 4f 1b c7 b4 b1 a1 bf fd 2c cd 72 73 c3 e4 3f
       -0.03455891542912895 0.6488587610450903
0007b0 3a a3 59 32 94 41 d1 3f f5 07 a8 c4 53 4c c3 bf
       0.26962761799818546 -0.15076682188379179
0007c0 d8 b8 6e e1 ba 51 9d bf c1 35 57 78 64 88 bb bf
       -0.028632087716396665 -0.10754993379597179
0007d0 d5 a8 16 15 ef de d1 3f d0 46 96 6f 26 c0 d6 bf
       0.2792318063681141 -0.35547791382951477
0007e0 86 26 20 a3 c7 54 c8 3f 20 30 5a 27 f9 b8 bb 3f
       0.19008727517239182 0.10829121790646967
0007f0 7e fe 0f 28 bf ac 8f 3f df 9b e4 d5 fc 6b d2 bf
       0.0154662069417093 -0.2878410424040662
